model/checkpoint.pth (torch_old, 274476 bytes, 6 tensors)

hidden_layers.0.weight f4 [256, 200]
-0.056663018 -0.035524342 -0.031704437 -0.06405634 -0.0060141864 0.009080829 0.03571389 0.008053258
-0.058617692 -0.08278438 -0.054430977 -0.01402333 -0.038429756 -0.024831716 -0.0026635013 -0.050248735
-0.023712976 -0.06889041 0.00908943 -0.039512437 -0.0010285662 0.0047448697 -0.052818753 -0.0028219055
-0.026960088 -0.026177097 0.0488374 -0.056207594 0.028221065 0.05221763 -0.052275896 -0.04466031
-0.015342702 0.029747292 0.0021927191 0.009173202 -0.07463501 0.03525241 0.039914098 -0.01747949
-0.07192289 0.005552634 0.0371471 -0.05817366 0.03399466 -0.030709367 -0.049761344 0.012318907
0.049635474 0.031112086 -0.011703131 0.013973065 -0.050373256 -0.041896317 -0.069054425 -0.07060068
-0.008821262 -0.07729505 -0.04714498 -0.046896555 -0.080440424 0.034339543 0.028668674 -0.0041954266
-0.006076575 -0.010629448 -0.025790371 0.0007610816 0.03450844 -0.075236976 -0.08242922 0.022397889
-0.0397023 0.044310194 -0.07172096 0.018703781 0.042502932 0.046539903 -0.04736722 0.036336273
-0.04882167 -0.010647297 -0.016196467 0.024473427 -0.059182227 0.009453534 -0.028174493 -0.05689576
-0.025719823 0.027475897 -0.0033582377 -0.047289718 0.0025220187 -0.06872822 -0.023884717 -0.07519685
-0.017005552 0.004650324 0.001001647 -0.039729297 -0.0055765705 -0.033351257 0.045866236 -0.035668127
0.03408614 0.024508554 -0.033748396 0.048430316 0.012444372 -0.022693519 0.03258778 0.04599324
0.024604836 0.053569164 0.028825639 -0.053621046 -0.03367939 -0.037458714 -0.05804123 0.05146603
0.046349406 0.0147681795 -0.059369575 0.053190805 0.0074702934 -0.055850133 0.04419231 0.021714095
0.0031365782 -0.015037728 -0.023634337 0.01697456 0.028686108 -0.06139533 0.03659959 -0.052244686
-0.038021192 -0.0054993867 0.048700836 0.05206255 0.019284206 -0.029975718 -0.001953185 -0.045948155
0.008797855 0.032721747 -0.050152402 -0.047053553 -0.00027908006 -0.051733747 0.0007969404 -0.07510596
0.022966437 0.00761932 0.010464345 -0.022963848 0.013629523 0.0037923611 0.027088007 -0.014671826
-0.054487348 0.042742573 0.03641129 -0.076725654 0.01794755 0.04330323 -0.06265653 -0.01653938
0.04270545 -0.05747679 -0.08482049 0.0010843325 -0.0076082195 0.03334097 -0.08275522 -0.030333048
-0.01246408 -0.019803014 -0.01567854 -0.043379743 0.0029858684 -0.058798417 -0.010558924 0.013153929
-0.043567043 0.05039952 -0.024719514 0.043517206 0.01073963 -0.08459416 -0.0034153522 -0.0593664
-0.03721989 -0.07323017 -0.06783105 0.033722773 0.030878758 0.05046695 -0.0719249 0.028293941
-0.016342541 -0.06426943 -0.04215287 -0.05784577 0.017917983 0.02984837 0.021144694 -0.022989707
-0.054908145 0.06615017 -0.028907454 -0.005679643 0.0046051685 -0.019477965 -0.05376465 -0.0541655
-0.04191825 -0.011140395 0.029407833 -0.03333423 -0.032950323 0.07303153 -0.009444853 0.006373541
-0.050352767 -0.03060625 0.08825916 -0.051884778 0.024511155 -0.11352014 -0.14169054 -0.031382576
-0.031367105 0.008980018 -0.10889547 0.08678195 -0.05277239 -0.036173914 0.05477791 -0.10507711
-0.10183392 0.014593913 0.10541814 -0.026098134 0.047665194 0.038249165 -0.053752944 0.078601815
0.04067912 0.029990036 0.0033410615 -0.036017433 -0.010763394 0.009664591 0.016019668 -0.008738212
00000000: 7b17 68bd f981 11bd 83dc 01bd f82f 83bd
00000010: a712 c5bb c2c7 143c ba48 123d d0f1 033c
00000020: 1b19 70bd db8a a9bd 04f3 5ebd 1cc2 65bc
00000030: 8568 1dbd e26b cbbc 238e 2ebb 9ed1 4dbd
00000040: b741 c2bc 6a16 8dbd d5eb 143c cbd7 21bd
00000050: f4d0 86ba da7a 9b3b 7a58 58bd b8ef 38bb
00000060: 67db dcbc 5a71 d6bc ba09 483d ef39 66bd
00000070: dd2f e73c 27e2 553d 401f 56bd bbed 36bd
00000080: f55f 7bbc 98b0 f33c b9b3 0f3b 334b 163c
00000090: 3dda 98bd d564 103d f77c 233d 2631 8fbc
000000a0: 4f4c 93bd dff2 b53b 8f27 183d 8147 6ebd
000000b0: fc3d 0b3d 3692 fbbc 8dd2 4bbd 3ed5 493c
000000c0: 914e 4b3d c6de fe3c 7dbe 3fbc 48ef 643c
000000d0: 3054 4ebd 799b 2bbd 686c 8dbd 1797 90bd
000000e0: 0e87 10bc de4c 9ebd 181b 41bd 9a16 40bd
000000f0: f3bd a4bd 9fa7 0c3d 91da ea3c ca79 89bb
00000100: 011e c7bb 2327 2ebc 5446 d3bc 5283 473a
00000110: b958 0d3d d815 9abd a7d0 a8bd c77b b73c
00000120: e19e 22bd 9b7e 353d 70e2 92bd ac38 993c
00000130: 8e17 2e3d a0a0 3e3d 2104 42bd 58d5 143d
00000140: 3bf9 47bd 0072 2ebc 74ae 84bc 7f7c c83c
00000150: 1069 72bd ffe2 1a3c 32ce e6bc 870b 69bd
00000160: 61b2 d2bc 2215 e13c e115 5cbb ddb2 41bd
00000170: 7448 253b 62c1 8cbd e2a9 c3bc ce00 9abd
00000180: 3a4f 8bbc bf61 983b b249 833a 30bb 22bd
00000190: aabb b6bb 549b 08bd 3cde 3b3d be18 12bd
000001a0: e99d 0b3d 2ac6 c83c c23b 0abd de5e 463d
000001b0: 7be3 4b3c c2e7 b9bc c47a 053d 6863 3c3d
000001c0: 1590 c93c 576b 5b3d bf23 ec3c bea1 5bbd
000001d0: 66f3 09bd 4f6e 19bd a4bc 6dbd 0bce 523d
000001e0: e0d8 3d3d 3cf6 713c 832d 73bd 9ade 593d
000001f0: 5dc9 f43b 1cc3 64bd ff02 353d c2e1 b13c
00000200: 0d8f 4d3b cd60 76bc cc9c c1bc 3c0e 8b3c
00000210: 21ff ea3c ab79 7bbd 74e9 153d 86fe 55bd
00000220: 1cbc 1bbd 3334 b4bb 877a 473d 8a3f 553d
00000230: e9f9 9d3c a38f f5bc 0201 00bb 2234 3cbd
00000240: e124 103c 3d07 063d 9b6c 4dbd 3abb 40bd
00000250: 7e51 92b9 c4e6 53bd c4e9 503a 27d1 99bd
00000260: 1c24 bc3c 7dab f93b a572 2b3c ae1e bcbc
00000270: 5d4e 5f3c 4389 783b abe7 dd3c 1962 70bc
00000280: 202e 5fbd d612 2f3d 0124 153d 5722 9dbd
00000290: be06 933c ba5e 313d 1152 80bd 987d 87bc
000002a0: e9eb 2e3d c86c 6bbd 5db6 adbd 2920 8e3a
000002b0: 5f4e f9bb 8a90 083d 927b a9bd 037d f8bc
000002c0: 2436 4cbc ee39 a2bc 4870 80bc f5ae 31bd
000002d0: 8fae 433b 9cd6 70bd 56ff 2cbc 9483 573c
000002e0: 5b73 32bd ba6f 4e3d 9480 cabc 193f 323d
000002f0: 46f5 2f3c b43f adbd 1ad4 5fbb 2f2a 73bd
00000300: e273 18bd b3f9 95bd 01eb 8abd e420 0a3d
00000310: 73f5 fc3c 6fb6 4e3d 5d4d 93bd b2c8 e73c
00000320: cbe0 85bc b19f 83bd 7da8 2cbd b0ef 6cbd
00000330: bcc8 923c 9284 f43c a337 ad3c e954 bcbc
00000340: 5de7 60bd be79 873d 53cf ecbc 4c1c babb
00000350: f4e6 963b 4190 9fbc 5238 5cbd a5dc 5dbd
00000360: 79b2 2bbd 3486 36bc b2e8 f03c 7989 08bd
00000370: ebf6 06bd 8e91 953d 96be 1abc 23d9 d03b
00000380: b43e 4ebd f5b9 fabc 38c1 b43d 2285 54bd
00000390: 9ecb c83c 3f7d e8bd 5317 11be 048b 00bd
000003a0: cb7a 00bd ed20 133c 9704 dfbd bcba b13d
000003b0: dd27 58bd 192b 14bd cd5e 603d ab32 d7bd
000003c0: 4d8e d0bd 4f1b 6f3c 77e5 d73d c1cb d5bc
000003d0: 943c 433d 28ab 1c3d 0c2c 5cbd fdf9 a03d
000003e0: 269f 263d aaad f53c b6f5 5a3b 0487 13bd
000003f0: f258 30bc 3c58 1e3c ae3b 833c b82a 0fbc

hidden_layers.0.bias f4 [256]
0.033007026 -0.033802398 -0.04978061 -0.04254887 0.025659725 0.032525517 0.032364387 -0.0063816877
-0.069601536 -0.038000975 0.05035758 -0.01127703 -0.029688243 0.046428673 0.009067972 -0.020567475
-0.03438201 0.02887033 0.00862509 0.09048162 -0.0056775766 0.055539507 -0.042749424 -0.027002417
-0.061915174 -0.046991665 -0.02435482 -0.026774744 0.040635563 -0.0473095 -0.027489744 -0.01697872
0.005821772 -0.0039286017 0.020708501 -0.03568297 0.04688911 -0.017914396 0.07471725 0.061968125
0.09292396 0.034149803 -0.03366654 0.07583442 0.0044023767 -0.049408756 -0.06148587 -0.006183723
-0.03881757 0.0506432 -0.038172938 0.042489525 0.026413467 -0.05825314 -0.05528421 0.060370598
-0.06402955 -0.057093035 0.030148052 0.045411833 -0.07377015 0.009537016 -0.0019867797 -0.051289883
-0.03134326 -0.028209012 0.06314665 -0.0030359377 -0.018773852 0.0045654248 0.073551364 -0.022089368
-0.047902256 -0.04185617 -0.02437835 -0.0023021016 -0.07278991 0.018113283 0.048299357 -0.08401916
0.06782101 0.041240208 -0.03765802 0.10238149 0.055853754 0.021038994 0.046156302 0.009126847
0.0024833498 -0.011975738 0.04324645 -0.090932526 0.08042134 0.072744645 -0.006681025 -0.06774249
-0.026153874 0.06130525 0.04413154 -0.041766636 -0.026404688 -0.0033934712 -0.005463384 0.00059631054
-0.041472368 0.05529247 -0.054207172 0.0106301755 0.003735588 0.020808093 0.053873353 0.014076881
-0.01856561 0.037830014 0.06920876 0.03395072 0.019484043 0.03280404 -0.035663433 0.00177568
-0.01736961 -0.051980883 -0.006179696 -0.023605347 0.024235874 0.039132476 0.043976873 0.028460609
0.068168305 -0.046202213 -0.04502878 0.02978086 0.0046179947 -0.03553708 0.026384909 -0.04424862
0.012970214 -0.009894467 -0.015023751 -0.035504773 -0.026910141 0.04846452 -0.04931097 -0.010129952
0.0987282 0.04227975 0.03291846 0.02225461 -0.05448019 -0.053365 0.07825293 0.018405639
-0.064978056 -0.04154899 -0.021467388 -0.013666254 0.06275918 0.06943242 0.02784172 -0.09862964
0.11487297 -0.0021681811 -0.07801212 0.03581397 0.014302236 0.04967412 -0.020336835 -0.04190235
0.049903534 -0.0053958637 -0.06291881 0.053317368 -0.059295475 0.039268427 0.03602807 0.044434465
-0.020616235 0.041319318 -0.060085036 0.0048531154 -0.054829605 0.048835903 0.112841256 -0.010796759
-0.028502349 -0.0093775205 -0.0059615574 0.08475093 0.073105454 0.049795542 -0.021668209 0.10143257
0.061209396 -0.008722242 -0.020781714 0.029804787 0.03386924 0.0048655113 0.029446758 0.06994223
-0.0013861688 -0.09792031 0.056879893 0.043293767 -0.0062407255 0.04403366 0.007903897 0.013497243
-0.029460285 0.022910275 0.080282815 0.009643393 -0.028136708 0.020350028 -0.07050414 0.05299788
-0.03656819 0.030218432 -0.078054324 -0.03486115 0.08286028 -0.01239346 -0.05081111 0.12942107
-0.038895894 0.094714664 0.042717695 -0.112700656 0.00842177 -0.06590718 -0.03448775 -0.02458141
-0.08027535 -0.03442629 0.01359989 0.01493429 -0.0478953 0.024488924 -0.07422871 0.034170836
-0.020674855 -0.052609757 -0.0729693 0.013145643 -0.03617082 -0.046241626 0.0009461045 0.0054226164
0.023363618 0.0075858533 0.03856981 0.021495562 -0.021486413 -0.0276874 -0.028554924 -0.027871111
00000000: 6032 073d 6274 0abd c1e6 4bbd b947 2ebd
00000010: 5834 d23c 7a39 053d 8590 043d 7a1d d1bb
00000020: 408b 8ebd e9a6 1bbd c043 4e3d 4bc3 38bc
00000030: c234 f3bc fe2b 3e3d d591 143c 1f7d a8bc
00000040: 27d4 0cbd 7881 ec3c 4050 0d3c 6d4e b93d
00000050: f70a babb 657d 633d 051a 2fbd 2c34 ddbc
00000060: c49a 7dbd 557a 40bd c283 c7bc b556 dbbc
00000070: 7a71 263d 9bc7 41bd 2c32 e1bc f516 8bbc
00000080: 90c4 be3b 80bb 80bb e0a4 a93c 4e28 12bd
00000090: cc0e 403d 36c1 92bc 5c05 993d 4ad2 7d3d
000000a0: eb4e be3d aae0 0b3d ede5 09bd 144f 9b3d
000000b0: d041 903b d660 4abd 9cd8 7bbd d4a0 cabb
000000c0: 2cff 1ebd 3e6f 4f3d 3a5b 1cbd 7f09 2e3d
000000d0: 0e61 d83c d89a 6ebd b271 62bd 2947 773d
000000e0: ed21 83bd 63da 69bd 0cf9 f63c c201 3a3d
000000f0: ce14 97bd 2541 1c3c a234 02bb 5715 52bd
00000100: ca61 00bd 9616 e7bc 0853 813d 95f6 46bb
00000110: 9fcb 99bc 8f99 953b 19a2 963d c3f4 b4bc
00000120: 2835 44bd 6071 2bbd 1bb5 c7bc dbde 16bb
00000130: e012 95bd 4f62 943c 8cd5 453d 3d12 acbd
00000140: bee5 8a3d 7eeb 283d 4c3f 1abd 63ad d13d
00000150: e8c6 643d f859 ac3c 640e 3d3d c588 153c
00000160: b2bf 223b e335 44bc 3123 313d d53a babd
00000170: f2b3 a43d 25fb 943d 80ec dabb 93bc 8abd
00000180: a640 d6bc 371b 7b3d 46c3 343d 7e13 2bbd
00000190: a54e d8bc 0065 5ebb 3006 b3bb b951 1c3a
000001a0: eede 29bd 5b7a 623d 5708 5ebd 302a 2e3c
000001b0: c4d0 743b bc75 aa3c 4eaa 5c3d b8a2 663c
000001c0: e816 98bc a5f3 1a3d 53bd 8d3d e90f 0b3d
000001d0: 009d 9f3c 875d 063d d213 12bd efbd e83a
000001e0: b64a 8ebc e8e9 54bd 0c7f cabb 0060 c1bc
000001f0: 508a c63c 6049 203d 1821 343d 3926 e93c
00000200: d39b 8b3d 883e 3dbd 1970 38bd fdf6 f33c
00000210: 8c52 973b 548f 11bd 2a25 d83c 0a3e 35bd
00000220: 0581 543c 671c 22bc 2e26 76bc 746d 11bd
00000230: a872 dcbc bc82 463d 4dfa 49bd 19f8 25bc
00000240: 0332 ca3d 882d 2d3d 82d5 063d 4d4f b63c
00000250: 9f26 5fbd 4295 5abd 1243 a03d 6cc7 963c
00000260: 3713 85bd 462f 2abd 60dc afbc 6ce8 5fbc
00000270: e387 803d 9632 8e3d 5214 e43c 56fe c9bd
00000280: 8542 eb3d 0b18 0ebb d2c4 9fbd abb1 123d
00000290: ed53 6a3c 1777 4b3d 6f99 a6bc cca1 2bbd
000002a0: a667 4c3d c9cf b0bb 94db 80bd 5063 5a3d
000002b0: d0df 72bd eed7 203d 2b92 133d ea00 363d
000002c0: 61e3 a8bc 723e 293d ba1b 76bd e206 9f3b
000002d0: 0295 60bd 2808 483d 5119 e73d e4e4 30bc
000002e0: c27d e9bc 2ca4 19bc 2b59 c3bb e591 ad3d
000002f0: 50b8 953d 69f6 4b3d 8781 b1bc e1bb cf3d
00000300: b4b6 7a3d bce7 0ebc 6a3e aabc 2b29 f43c
00000310: 79ba 0a3d de6e 9f3b 543a f13c df3d 8f3d
00000320: 1bb0 b5ba 728a c8bd e4fa 683d ce54 313d
00000330: 007f ccbb a45c 343d 597f 013c 8a23 5d3c
00000340: b256 f1bc 54ae bb3c 516b a43d 52ff 1d3c
00000350: f47e e6bc 1ab5 a63c 7964 90bd 4e14 593d
00000360: 87c8 15bd a58c f73c f2da 9fbd 91ca 0ebd
00000370: a7b2 a93d f00d 4bbc 4f1f 50bd f586 043e
00000380: 4d51 1fbd c3f9 c13d c0f8 2e3d 9acf e6bd
00000390: 77fb 093c 58fa 86bd 0743 0dbd f45e c9bc
000003a0: 6767 a4bd 9502 0dbd 13d2 5e3c f4ae 743c
000003b0: dd2d 44bd ff9c c83c 3905 98bd b8f6 0b3d
000003c0: 505e a9bc 547d 57bd ee70 95bd d360 573c
000003d0: db27 14bd dc67 3dbd 0004 783a 34b0 b13b
000003e0: 0f65 bf3c c092 f83b 61fb 1d3d 7617 b03c
000003f0: 4604 b0bc b0d0 e2bc 04ec e9bc f551 e4bc

hidden_layers.1.weight f4 [64, 256]
-0.011760363 -0.004725526 -0.051594257 0.024084628 0.028481387 0.018880382 0.030425422 0.011468376
-0.050864287 -0.038967364 -0.015380625 -0.050898377 -0.01428919 -0.05747243 -0.056146182 0.04962194
-0.0017673639 0.023608588 -0.05486861 -0.037498154 -0.07275265 -0.017142791 0.046618238 -0.027281985
0.042778175 0.033378553 0.061276823 -0.04553448 -0.030078717 -0.059758812 0.061218053 0.05500479
0.054585904 -0.021401271 -0.050695777 -0.0318031 -0.01751101 -0.024916142 -0.07624683 0.0118817035
0.010586746 -0.037501145 0.022983417 0.008060007 -0.020733237 0.029502794 -0.056433924 -0.04864791
-0.026463928 -0.03788551 -0.040398613 0.03791409 0.005465867 -0.044001546 0.029180929 -0.011127299
-0.0036847258 -0.04558271 -0.036770597 -0.036393553 -0.0048890524 -0.071122475 -0.021083161 -0.025192888
0.048515078 -0.024271261 -0.09543874 0.017648086 0.02241005 -0.008153881 0.011156883 0.03683353
-0.05975373 -0.05793909 -0.045145728 -0.012374766 0.011344384 0.0048244763 -0.010986321 0.03705775
-0.052221954 0.004894741 -0.06541721 -0.03841229 -0.02524099 0.036935546 -0.033422396 0.013610247
-0.032282885 -0.063367054 0.019015377 0.005083343 0.019616656 -0.005792525 -0.055936657 -0.020400967
0.048761487 -0.021869713 0.009415558 -0.054325044 0.0268278 0.049928546 0.053500142 -0.050582074
0.050938267 -0.05970286 0.0059559345 0.003504198 -0.023372348 -0.031442143 -0.047676697 -0.035686903
0.022548482 -0.033718344 0.0014957032 -0.053916387 -0.059826255 0.04499694 0.028684087 0.00695238
0.0008652657 0.013094984 0.0030464306 0.044992745 -0.0018884316 0.028227676 0.010179271 0.01372067
0.06178572 0.030867869 0.034871034 0.027244857 -0.07179074 0.03663156 -0.043122962 0.018051453
-0.047016032 -0.031899862 -0.04806032 0.02733747 0.022562204 -0.04214803 -0.025527736 0.007981859
0.005749045 0.040195752 -0.051299825 0.016774854 -0.0148440525 0.043639485 -0.060876098 -0.007396938
-0.011186436 -0.038408466 -0.021239521 0.051148646 -0.047378413 -0.07105622 0.0140306465 -0.023599515
-0.020938648 -0.02612351 -0.06955013 -0.044112828 -0.047414754 -0.012259781 -0.0020634844 0.057497323
-0.012724711 0.052469343 -0.00042482605 -0.055940986 0.006520084 0.021464854 -0.031035313 0.0274079
-0.035410244 -0.06521916 0.051707182 0.030689158 -0.042561106 -0.034962162 0.030177416 -0.01977352
-0.009068035 -0.062214956 -0.041512042 -0.049877513 0.032447357 0.031433813 -0.015556321 -0.0137269255
-0.03328571 0.062024303 0.048190054 0.0001408406 0.041291244 -0.025405122 0.051913902 -0.045049522
0.01715096 0.040816765 -0.03880545 -0.08866568 0.0014628246 -0.041882943 -0.016344585 -0.043993317
0.060034655 0.026605286 -0.023329724 -0.07343989 -0.0009106025 -0.032728136 0.037063494 -0.024708532
-0.038074415 -0.041708596 0.004332778 -0.03889981 -0.012647589 0.02606417 -0.026474956 0.052298076
-0.044429876 0.034933742 -0.05732671 -0.018560654 -0.03154151 -0.030687109 0.053918384 0.026842237
0.014105886 0.04440236 0.054474432 -0.041879285 0.031566687 -0.07453294 0.067559935 -0.0033395886
-0.056600846 -0.057388656 -0.04224363 -0.07230109 0.03926737 -0.056170188 -0.0072204024 0.020967677
-0.026644818 -0.056185134 -0.031847995 0.008604703 -0.007316828 0.021173595 -0.010195941 -0.0039039797
00000000: 8aae 40bc 96d8 9abb 8054 53bd 204d c53c
00000010: cc51 e93c 08ab 9a3c bc3e f93c dbe5 3b3c
00000020: 1257 50bd 3e9c 1fbd 04ff 7bbc d17a 50bd
00000030: 351d 6abc 3668 6bbd 8af9 65bd 6040 4b3d
00000040: e4a6 e7ba cc66 c13c e8bd 60bd aa97 19bd
00000050: 57ff 94bd 0a6f 8cbc c4f2 3e3d 787e dfbc
00000060: 2b38 2f3d f3b7 083d 68fd 7a3d 5d82 3abd
00000070: a467 f6bc a8c5 74bd c8bf 7a3d b44c 613d
00000080: 7895 5f3d b851 afbc 60a6 4fbd f843 02bd
00000090: 4073 8fbc f01c ccbc 4c27 9cbd 7aab 423c
000000a0: 0874 2d3c cd9a 19bd b847 bc3c 1f0e 043c
000000b0: c0d8 a9bc d8af f13c 4227 67bd 0843 47bd
000000c0: e1ca d8bc d62d 1bbd 0479 25bd ce4b 1b3d
000000d0: 041b b33b f73a 34bd d80c ef3c 464f 36bc
000000e0: 717b 71bb f0b4 3abd c49c 16bd 6811 15bd
000000f0: 5834 a0bb a9a8 91bd 98b6 acbc 5161 cebc
00000100: bfb7 463d 86d4 c6bc 6375 c3bd b892 903c
00000110: 4895 b73c db97 05bc 5ccb 363c c1de 163d
00000120: 54c0 74bd 8a51 6dbd baea 38bd 88bf 4abc
00000130: ccdd 393c a416 9e3b f8ff 33bc dec9 173d
00000140: b0e6 55bd 1064 a03b 75f9 85bd 3556 1dbd
00000150: 31c6 cebc ba49 173d ece5 08bd 83fd 5e3c
00000160: 0f3b 04bd 96c6 81bd 23c6 9b3c 2c92 a63b
00000170: 1cb3 a03c 39cf bdbb d61d 65bd ee1f a7bc
00000180: 20ba 473d 1d28 b3bc b643 1a3c f083 5ebd
00000190: f9c5 db3c e081 4c3d f722 5b3d 262f 4fbd
000001a0: a5a4 503d fc8a 74bd 002a c33b b0a6 653b
000001b0: 5e77 bfbc 7ac9 00bd a448 43bd 6e2c 12bd
000001c0: 98b7 b83c 3f1c 0abd 790b c43a 6ed7 5cbd
000001d0: 600c 75bd b64e 383d e4fa ea3c cad0 e33b
000001e0: 00d3 623a 588c 563c a0a6 473b 504a 383d
000001f0: 4085 f7ba ba3d e73c f5c6 263c a9cc 603c
00000200: 0613 7d3d 9dde fc3c eed4 0e3d 9b30 df3c
00000210: 0607 93bd fa0a 163d b4a1 30bd a4e0 933c
00000220: e293 40bd 6ea9 02bd e6da 44bd d4f2 df3c
00000230: 5fd4 b83c 6aa3 2cbd 8b1f d1bc 58c6 023c
00000240: 7c62 bc3b 4da4 243d c41f 52bd 6b6b 893c
00000250: 7834 73bc 51bf 323d 3759 79bd 0362 f2bb
00000260: 5047 37bc 3252 1dbd 81fe adbc 3e81 513d
00000270: de0f 42bd ec85 91bd cce0 653c c553 c1bc
00000280: 8787 abbc f900 d6bc 4c70 8ebd a7af 34bd
00000290: f935 42bd 40dd 48bc 863b 07bb 5082 6b3d
000002a0: 4e7b 50bc 18ea 563d 30bb deb9 6022 65bd
000002b0: 6ea6 d53b 10d7 af3c c53d febc 8886 e03c
000002c0: 550a 11bd 9f91 85bd e9ca 533d d467 fb3c
000002d0: 8e54 2ebd 7c34 0fbd a136 f73c 14fc a1bc
000002e0: 1892 14bc 1cd5 7ebd 8808 2abd 5d4c 4cbd
000002f0: 85e7 043d bec0 003d f0df 7ebc e6e6 60bc
00000300: 9956 08bd 320d 7e3d ef62 453d 9cae 1339
00000310: 0221 293d 671e d0bc aca3 543d d985 38bd
00000320: 2c80 8c3c 7b2f 273d 77f2 1ebd 5a96 b5bd
00000330: 40bc bf3a 738d 2bbd 14e5 85bc 5632 34bd
00000340: e6e6 753d 54f3 d93c fa1d bfbc a767 96bd
00000350: 80b5 6eba f00d 06bd e4cf 173d 8c69 cabc
00000360: ebf3 1bbd a2d6 2abd faf9 8d3b 6855 1fbd
00000370: d537 4fbc 8784 d53c 02e2 d8bc 8236 563d
00000380: 1afc 35bd af16 0f3d 6acf 6abd 830c 98bc
00000390: ac31 01bd 8863 fbbc 86d9 5c3d 40e4 db3c
000003a0: 601c 673c 40df 353d 9520 5f3d 9d89 2bbd
000003b0: 124c 013d baa4 98bd dd5c 8a3d 00dd 5abb
000003c0: 4ad6 67bd 5e10 6bbd a807 2dbd 9812 94bd
000003d0: d2d6 203d b612 66bd 2099 ecbb 68c4 ab3c
000003e0: 3c46 dabc 6222 66bd 0b73 02bd bdfa 0c3c
000003f0: 00c2 efbb 3f74 ad3c e00c 27bc e9d9 7fbb

hidden_layers.1.bias f4 [64]
-0.06622179 -0.040383607 0.050938666 0.08045661 -0.04479306 0.011761867 0.07040233 0.015032102
0.07298011 -0.006851751 -0.08406569 -0.008139272 0.15067056 0.048433047 0.024667861 0.07228326
0.03542429 0.09803444 0.01090436 0.018609988 0.14591788 0.079787314 0.11274187 0.07519992
-0.0010263398 0.038073696 0.09508243 -0.04926181 0.0813672 0.11467833 0.08729035 -0.02411383
0.038292054 0.021669878 -0.049858168 -0.029726397 0.045355663 0.064311795 0.051851958 0.10073064
0.06911255 -0.0182107 0.039435074 -0.013386012 0.036268722 0.05402211 -0.023302931 0.15658697
-0.050182305 0.020252543 0.0077643483 0.10274655 -0.06831181 0.047007736 0.12640387 -0.010591668
0.08699094 0.026153231 0.120784126 0.07504128 0.08905532 -0.00793183 0.055769723 0.10845561
00000000: 4a9f 87bd 4869 25bd 10a5 503d 6fc6 a43d
00000010: ed78 37bd d9b4 403c 192f 903d 3549 763c
00000020: 9976 953d a784 e0bb a22a acbd 955a 05bc
00000030: 6249 1a3e bb61 463d 4114 ca3c 3f09 943d
00000040: 0f19 113d 48c6 c83d 33a8 323c f973 983c
00000050: 7f6b 153e 8867 a33d 36e5 e63d 6a02 9a3d
00000060: 4086 86ba 2af3 1b3d 94ba c23d c0c6 49bd
00000070: d9a3 a63d 79dc ea3d 48c5 b23d 5e8a c5bc
00000080: 21d8 1c3d 0785 b13c 1438 4cbd c684 f3bc
00000090: dcc6 393d e7b5 833d b862 543d de4b ce3d
000000a0: e18a 8d3d 9b2e 95bc ac86 213d 0151 5bbc
000000b0: 838e 143d 4a46 5d3d cae5 bebc 5658 203e
000000c0: f68b 4dbd a9e8 a53c 136c fe3b c96c d23d
000000d0: 10e7 8bbd 2f8b 403d 0470 013e ad88 2dbc
000000e0: 4e28 b23d 4d3f d63c ab5d f73d 3eaf 993d
000000f0: a362 b63d 82f4 01bc cb6e 643d fa1d de3d

output.weight f4 [6, 64]
-0.11545294 0.03778291 0.28054163 0.052471217 -0.4916635 -0.15627173 -0.28827265 0.2889068
-0.32153016 0.03538747 0.21720429 -0.032984734 -0.3663897 0.26122797 -0.22349495 -0.046311375
0.047711395 -0.13024437 0.060749777 -0.28057107 -0.049449824 -0.15787418 -0.27571347 0.23730768
-0.0026438145 -0.062051505 -0.09709772 -0.023636552 -0.33442068 -0.22439307 -0.10477775 -0.107387066
-0.23078112 -0.5182026 0.4564692 -0.020585075 -0.08111636 0.19229126 -0.26504135 0.15963285
0.034052808 0.057440177 -0.3756828 -0.065679684 0.2943804 0.10332424 0.14816417 -0.46644038
-0.12220942 -0.16390651 -0.339826 0.20811442 0.25467545 -0.34207046 -0.27902493 -0.09209023
0.102427006 0.113197714 0.057618737 0.30072325 0.15642731 0.33116147 0.12614533 -0.2728034
-0.089767665 0.0277738 -0.061653603 0.053844728 0.54072857 -0.5235612 -0.48087922 0.47265372
-0.0141595695 -0.5258311 0.08552251 -0.073164836 -0.05361922 0.23613584 -0.030015836 0.0020641377
-0.024733538 -0.2574495 0.041535817 0.27321795 0.20666765 -0.35567617 -0.03302277 -0.29965305
-0.118967235 -0.5139426 0.0044902 -0.21705003 0.080665864 0.22780047 0.09073711 -0.06901958
0.08994276 0.1307684 -0.06433961 0.43653402 -0.32662567 -0.46515775 0.19235554 0.00073951465
-0.4687447 -0.04081207 -0.0022677577 0.0014366346 -0.26490176 -0.44229522 0.084595904 -0.26407927
0.28594613 0.044584937 0.41206375 -0.1467984 -0.32589453 0.30216905 0.21750222 0.030111702
-0.09088697 0.11538266 0.16998948 -0.22735879 0.25689682 -0.49176237 -0.5349611 0.05782078
-0.0067151883 -0.07667794 -0.5769143 0.12245919 0.19910821 0.015279439 0.16918314 -0.26703626
0.002535375 0.51140285 -0.13058774 0.06858219 0.04686117 -0.1371999 0.15121548 -0.27800822
0.120262645 0.13567698 -0.28004113 -0.4562001 0.11670708 -0.08551428 -0.32225642 -0.6433144
0.08114315 0.089104585 -0.19019938 -0.34286758 -0.17572317 0.24155977 0.08243847 0.093008295
-0.42253098 0.25074068 0.086620905 0.2710495 -0.48650515 0.24538352 0.24740714 -0.5466485
-0.7297724 0.44641525 -0.07529065 -0.12265147 -0.25994456 0.37498066 0.22875072 -0.02221877
0.28389096 -0.25079605 -0.24153368 0.19846763 -0.22393614 0.26591438 0.012211199 0.30842465
0.05772007 -0.40849513 0.12757288 0.28189987 -0.44466814 -0.061192006 -0.13420057 0.15879944
-0.12460689 -0.09209504 -0.29593733 0.15774092 -0.25797796 0.13197345 0.18122502 -0.2033799
0.13513899 0.02096269 -0.014860511 0.081879415 0.062136307 -0.487416 -0.21821082 0.23702613
0.2776855 0.17497703 0.47779 0.2612048 -0.36718062 0.13192163 0.18928702 -0.050125904
-0.10384465 0.22986703 -0.2714098 0.3801889 -0.42781714 -0.2559847 0.15986548 0.079076126
-0.20465857 0.11226242 0.0780086 -0.39145905 -0.12771934 0.13326895 0.00392715 -0.20197438
0.09578594 0.1366703 0.1469361 -0.018724164 -0.17581427 -0.013320672 0.11739814 -0.17945446
-0.2578574 -0.22094901 -0.31741735 -0.40222353 0.31260228 -0.13116533 -0.39734328 -0.18546212
-0.3963235 -0.1122191 -0.41194057 0.0056756972 -0.38510042 -0.3763615 0.16421083 -0.0059460658
00000000: 9772 ecbd 41c2 1a3d 27a3 8f3e 0fec 563d
00000010: 51bb fbbe b205 20be 7998 93be 98eb 933e
00000020: 9a9f a4be 74f2 103d cd6a 5e3e 001b 07bd
00000030: 6e97 bbbe acbf 853e dcdb 64be ffb0 3dbd
00000040: 066d 433d c85e 05be c2d4 783d 03a7 8fbe
00000050: e68b 4abd c5a9 21be 512a 8dbe c900 733e
00000060: d943 2dbb b829 7ebd 2bdb c6bd 71a1 c1bc
00000070: 3039 abbe 4cc7 65be b895 d6bd c0ed dbbd
00000080: e351 6cbe eda8 04bf 55b6 e93e 08a2 a8bc
00000090: 5620 a6bd 00e8 443e 80b3 87be cb76 233e
000000a0: f57a 0b3d 6446 6b3d 7f59 c0be 1283 86bd
000000b0: 07b9 963e a99b d33d 59b8 173e 46d1 eebe
000000c0: ef48 fabd 1cd7 27be acfd adbe f21b 553e
000000d0: d264 823e dc23 afbe 5bdc 8ebe cd99 bcbd
000000e0: 40c5 d13d 34d4 e73d a001 6c3d 66f8 993e
000000f0: 7b2e 203e ff8d a93e 3e2c 013e e3ac 8bbe
00000100: 1cd8 b7bd e185 e33c 7d88 7cbd 4a8c 5c3d
00000110: 306d 0a3f 1b08 06bf cd35 f6be abff f13e
00000120: 8afd 67bc de9c 06bf 6d26 af3d 72d7 95bd
00000130: d49f 5bbd 98cd 713e c5e3 f5bc 7c46 073b
00000140: fd9d cabc 6cd0 83be 7621 2a3d 39e3 8b3e
00000150: afa0 533e 301b b6be e242 07bd 206c 99be
00000160: 18a5 f3bd be91 03bf 8722 933b 5d42 5ebe
00000170: 2534 a53d 8744 693e 61d4 b93d 235a 8dbd
00000180: e933 b83d 27e8 053e 7cc4 83bd 6381 df3e
00000190: 7b3b a7be 2829 eebe daf8 443e fddb 413a
000001a0: 4eff efbe 8f2a 27bd a99e 14bb 754d bc3a
000001b0: 34a1 87be 8574 e2be 9e40 ad3d 6635 87be
000001c0: 8867 923e b29e 363d 05fa d23e 5252 16be
000001d0: a6db a6be e7b5 9a3e e7b8 5e3e d1ac f63c
000001e0: f322 babd be4d ec3d b911 2e3e bed0 68be
000001f0: fb87 833e 47c8 fbbe 36f3 08bf 7bd5 6c3d
00000200: 150b dcbb 5309 9dbd a8b0 13bf e2cb fa3d
00000210: 06e3 4b3e 9d56 7a3c 583e 2d3e fab8 88be
00000220: 8928 263b 4ceb 023f cbb8 05be d274 8c3d
00000230: 80f1 3f3d 217e 0cbe 3bd8 1a3e 1857 8ebe
00000240: 434c f63d e8ee 0a3e 8d61 8fbe 0f93 e9be
00000250: 1f04 ef3d 1c22 afbd cbfe a4be 41b0 24bf
00000260: 612e a63d 777c b63d a0c3 42be 578c afbe
00000270: c6f0 33be 725b 773e 80d5 a83d 227b be3d
00000280: fb55 d8be 1561 803e 4d66 b13d 00c7 8a3e
00000290: 3417 f9be d145 7b3e 4c58 7d3e 28f1 0bbf
000002a0: 5dd2 3abf 8a90 e43e fc31 9abd b230 fbbd
000002b0: 7417 85be 77fd bf3e a13d 6a3e 2304 b6bc
000002c0: 285a 913e 5768 80be 9b54 77be 193b 4b3e
000002d0: 844f 65be ee25 883e 7b11 483c d6e9 9d3e
000002e0: e16b 6c3d 4626 d1be 77a2 023e 2e55 903e
000002f0: 8bab e3be 78a4 7abd e06b 09be 529c 223e
00000300: e631 ffbd 539c bcbd 1985 97be d686 213e
00000310: b015 84be 0c24 073e 0d93 393e d242 50be
00000320: e061 0a3e f2b9 ab3c 8079 73bc 65b0 a73d
00000330: a482 7e3d 978e f9be a872 5fbe fab6 723e
00000340: cb2c 8e3e 2e2d 333e e4a0 f43e a3bc 853e
00000350: 19ff bbbe 7716 073e 75d4 413e d250 4dbd
00000360: 81ac d4bd 4362 6b3e 3af6 8abe 1fa8 c23e
00000370: d90a dbbe 6d10 83be c7b3 233e aaf2 a13d
00000380: 0492 51be d7e9 e53d f9c2 9f3d 526d c8be
00000390: dcc8 02be a877 083e 52af 803b 5fd2 4ebe
000003a0: 6b2b c43d 4df3 0b3e 6b76 163e 6b63 99bc
000003b0: a808 34be f33e 5abc 706e f03d e9c2 37be
000003c0: e305 84be 7540 62be 8784 a2be 3ef0 cdbe
000003d0: 680d a03e 3450 06be 9470 cbbe c8e9 3dbe
000003e0: eaea cabe 21d3 e5bd e0e9 d2be 33fb b93b
000003f0: e22b c5be 74b2 c0be e226 283e 37d7 c2bb

output.bias f4 [6]
-0.05058795 -0.14679684 0.03531221 -0.15607321 0.01649018 0.06526055
00000000: 4f35 4fbd e951 16be 89a3 103d a8d1 1fbe
00000010: 6a16 873c 53a7 853d
