model/affect/checkpoint.pth (torch_old, 274476 bytes, 6 tensors)

hidden_layers.0.weight f4 [256, 200]
-0.04223123 -0.021091826 -0.017357826 -0.05007593 0.008321859 0.022994459 0.049641266 0.02166479
-0.044567462 -0.06849246 -0.040504083 0.00027877837 -0.023937084 -0.010725446 0.011333384 -0.03609448
-0.009455603 -0.05442962 0.023194939 -0.025151107 0.012904033 0.018874995 -0.038714252 0.01133398
-0.012611281 -0.011602841 0.063068025 -0.04260203 0.042522967 0.06647403 -0.038750235 -0.030452963
-0.0013661459 0.044030063 0.016204782 0.02348718 -0.060508203 0.049232185 0.054020718 -0.0040661097
-0.05842344 0.019914202 0.051305637 -0.043833792 0.048339933 -0.016689107 -0.035248213 0.026367001
0.06393214 0.045079075 0.0022682324 0.028151654 -0.03602077 -0.027591031 -0.055941507 -0.056104735
0.0052779764 -0.06380667 -0.03258276 -0.032682363 -0.06641468 0.0485276 0.042229526 0.010254182
0.008101299 0.0034034327 -0.011684086 0.014839895 0.04893803 -0.06104581 -0.068319194 0.036392964
-0.025421783 0.058489166 -0.057676658 0.0330408 0.05679726 0.060568087 -0.033296525 0.0508899
-0.03460318 0.00349693 -0.0017781928 0.03889589 -0.044778172 0.023730144 -0.013922352 -0.042342253
-0.011752151 0.041592747 0.010308579 -0.032971025 0.015882432 -0.054636605 -0.009762719 -0.061466057
-0.0031565055 0.01879184 0.015042692 -0.025352586 0.008849874 -0.019240364 0.059907176 -0.02154702
0.048217 0.03845755 -0.0196748 0.062391542 0.026627056 -0.0087252 0.045682244 0.0598901
0.038715027 0.06800071 0.042811044 -0.03959791 -0.019871406 -0.02316438 -0.04347515 0.06558781
0.060802065 0.029001608 -0.045054216 0.06749884 0.021701053 -0.042117313 0.058016934 0.03586048
0.017100029 -0.0008591041 -0.009332359 0.03130608 0.04277379 -0.047271572 0.050571404 -0.03826505
-0.024586603 0.008397214 0.062443398 0.06623014 0.033047095 -0.015687916 0.01148808 -0.031836476
0.023120783 0.04710667 -0.036197282 -0.03308151 0.013966009 -0.037663065 0.014684841 -0.06115057
0.03714116 0.021731168 0.024425954 -0.008945037 0.02763857 0.01810956 0.041543752 -0.00070908666
-0.040340833 0.056972034 0.050193414 -0.062478594 0.031784683 0.057373308 -0.049150232 -0.0024990588
0.056847505 -0.04347785 -0.07050598 0.015557595 0.0065704137 0.047325216 -0.06858425 -0.016341355
0.0012792647 -0.0056441203 -0.0015928745 -0.0291786 0.016998418 -0.044387538 0.0033711493 0.027150393
-0.029096473 0.06458823 -0.010188039 0.05739262 0.024976656 -0.07022745 0.010906979 -0.04545168
-0.02325916 -0.059150837 -0.053826846 0.04793948 0.044572383 0.06462037 -0.058026183 0.042432517
-0.012696173 -0.052770622 -0.026596457 -0.063120954 0.014214806 -0.00034745038 0.04242976 -0.06892171
-0.050463468 0.015557125 -0.010338351 0.0027047172 0.045049988 -0.0153942555 -0.065952845 -0.036141995
0.019222602 -0.01626864 -0.044645324 -0.015243739 -0.019403491 0.06659702 0.009545267 -0.0039051697
-0.04528024 -0.024759479 0.056793056 -0.05584406 0.039465435 -0.0553515 -0.06283347 0.008858755
-0.012485247 -0.044284128 -0.06857017 0.05683651 -0.060230136 -0.016705107 0.04967287 -0.038273748
-0.06840482 0.018693909 0.013185851 -0.025069892 0.06371377 0.03986661 -0.03165494 0.06562502
0.06460088 -0.0043435097 0.017385997 -0.05752887 0.033281766 0.0007273555 0.04440716 0.0056447387
00000000: a7fa 2cbd c4c8 acbc 0032 8ebc 6b1c 4dbd
00000010: 6858 083c e05e bc3c a454 4b3d 5c7a b13c
00000020: 5f8c 36bd c645 8cbd 9ce7 25bd 0029 9239
00000030: b417 c4bc c8b9 2fbc a8af 393c ced7 13bd
00000040: aceb 1abc 98f1 5ebd 5003 be3c b209 cebc
00000050: 706b 533c bc9f 9a3c d692 1ebd 28b2 393c
00000060: 8c9f 4ebc d819 3ebc cf29 813d 777f 2ebd
00000070: 902c 2e3d 8923 883d 91b8 1ebd 7e78 f9bc
00000080: 4010 b3ba de58 343d e4bf 843c 3068 c03c
00000090: 73d7 77bd b0a7 493d d444 5d3d 003d 85bb
000000a0: 6b4d 6fbd 1c23 a33c dc25 523d 108b 33bd
000000b0: 1800 463d 98b7 88bc 6e60 10bd 9cff d73c
000000c0: dbee 823d d6a4 383d a0a6 143b 4c9e e63c
000000d0: 848a 13bd 9606 e2bc ec22 65bd 14ce 65bd
000000e0: e0f2 ac3b 12ad 82bd 8075 05bd f1dd 05bd
000000f0: 6b04 88bd e0c4 463d def8 2c3d 2801 283c
00000100: 50bb 043c 200c 5f3b 9c6e 3fbc 0823 733c
00000110: 3e73 483d 2c0b 7abd efea 8bbd ca10 153d
00000120: 5841 d0bc 5692 6f3d 5c3e 6cbd ca55 073d
00000130: 3ea4 683d 3e16 783d f061 08bd ee71 503d
00000140: 10bc 0dbd c02c 653b 4012 e9ba 4c51 1f3d
00000150: 5169 37bd b865 c23c 941a 64bc 126f 2dbd
00000160: 188c 40bc 285d 2a3d 50e5 283c a00c 07bd
00000170: e01b 823c a2ca 5fbd d0f3 1fbc d5c3 7bbd
00000180: 60dd 4ebb 58f1 993c a075 763c 3ab0 cfbc
00000190: 10ff 103c f89d 9dbc 3a61 753d 6083 b0bc
000001a0: 307f 453d aa85 1d3d 0c2d a1bc 468e 7f3d
000001b0: fc20 da3c 24f4 0ebc 4e1d 3b3d 524f 753d
000001c0: a693 1e3d f543 8b3d a25a 2f3d 6b31 22bd
000001d0: 5cc9 a2bc 3ac3 bdbc 0013 32bd e752 863d
000001e0: 960b 793d c894 ed3c c58a 38bd d53c 8a3d
000001f0: 68c6 b13c 3483 2cbd 2aa3 6d3d 70e2 123d
00000200: 5c15 8c3c 8035 61ba c0e6 18bc ce3a 003d
00000210: 9233 2f3d d69f 41bd f623 4f3d d0bb 1cbd
00000220: d869 c9bc 7894 093c a6c4 7f3d aba3 873d
00000230: 645c 073d f283 80bc 8038 3c3c f766 02bd
00000240: cc67 bd3c ecf2 403d 9a43 14bd 7a80 07bd
00000250: b0d1 643c 9644 1abd b098 703c 0579 7abd
00000260: 5421 183d 9005 b23c f018 c83c 348e 12bc
00000270: 486a e23c 805a 943c c829 2a3d 00e2 39ba
00000280: 6e3c 25bd 825b 693d 9c97 4d3d 8ee9 7fbd
00000290: a830 023d 4600 6b3d c151 49bd 40c7 23bb
000002a0: eed8 683d d415 32bd 7065 90bd 48e5 7e3c
000002b0: a04c d73b 16d8 413d e675 8cbd 4ede 85bc
000002c0: 00ad a73a 50f2 b8bb 00c8 d0ba f607 efbc
000002d0: 4440 8b3c b5cf 35bd 80ee 5c3b 806a de3c
000002e0: ba5b eebc d546 843d bceb 26bc 8614 6b3d
000002f0: d89b cc3c 69d3 8fbd 30b3 323c 8a2b 3abd
00000300: fe89 bebc 2648 72bd 8a79 5cbd 305c 443d
00000310: 8891 363d af57 843d ddac 6dbd b8cd 2d3d
00000320: 9c03 50bc 0226 58bd d0e0 d9bc 8f45 81bd
00000330: 38e5 683c 002a b6b9 d4ca 2d3d d326 8dbd
00000340: c8b2 4ebd 50e3 7e3c 3062 29bc a041 313b
00000350: 5686 383d 3038 7cbc 4912 87bd a109 14bd
00000360: b878 9d3c d045 85bc 04de 36bd e0c0 79bc
00000370: 12f4 9ebc 0564 883d c063 1c3c e0ed 7fbb
00000380: c677 39bd 64d4 cabc d69f 683d bebc 64bd
00000390: 82a6 213d 41b8 62bd d6ae 80bd 5024 113c
000003a0: ec8e 4cbc 4663 35bd 846e 8cbd 66cd 683d
000003b0: e0b3 76bd 26d9 88bc c875 4b3d efc4 1cbd
000003c0: d417 8cbd f823 993c 7809 583c 605f cdbc
000003d0: 5d7c 823d 2c4b 233d 9ca8 01bd 6966 863d
000003e0: 774d 843d 0054 8ebb 146d 8e3c 64a3 6bbd
000003f0: 7652 083d 00ac 3e3a 48e4 353d 80f7 b83b

hidden_layers.0.bias f4 [256]
0.047297306 -0.04232381 -0.040839985 -0.033707146 0.025659725 0.041497104 0.04063364 0.03134548
-0.069601536 -0.038000975 0.012766801 -0.04321479 -0.021511432 0.03043446 0.016436532 -0.012285057
-0.024859738 0.039200768 0.00862509 0.040187754 0.0002989173 0.022490218 -0.042749424 -0.027002417
-0.026478566 -0.052414775 -0.02435482 0.04388097 0.040635563 -0.041669898 -0.027489744 -0.0070203617
0.005821772 -0.0039286017 0.020708501 -0.032352462 0.060997598 -0.008928128 0.046423048 0.053017735
0.062132306 0.024912931 -0.03366654 0.035598986 0.0044023767 -0.04264369 -0.06148587 0.05102206
-0.028195921 0.0506432 -0.029282436 0.05146622 0.037847027 -0.04335194 -0.05528421 0.06297419
-0.06422382 -0.047447927 0.030148052 0.06149759 -0.06135027 0.017609708 0.0017510504 -0.027958527
-0.023238238 0.0038368553 -0.029711869 0.0020573735 -0.009766832 0.018145509 0.07030464 -0.014203455
-0.047902256 -0.03672926 -0.014946099 0.00018601865 -0.0661883 0.02377119 0.03170353 -0.049045775
0.069478326 0.05024101 -0.021774683 0.06554069 0.061895393 0.021038994 0.046156302 0.020611271
0.0071448907 -0.016561065 0.013241686 -0.043401673 0.049956962 0.051952906 -0.006681025 -0.016815558
-0.026153874 0.015786678 0.05418717 -0.041766636 -0.013252091 -0.0033934712 0.006149523 0.0083009675
-0.032484096 0.064956985 -0.054207172 0.009794787 -0.013493855 0.020808093 0.053873353 0.014076881
-0.01856561 0.047188893 0.047007635 0.03770387 0.019484043 0.045995243 -0.035663433 -0.022416629
-0.008376848 -0.051980883 -0.003594704 -0.023605347 0.015490204 0.0484119 0.064047195 0.033481047
0.068168305 -0.042409368 -0.032418676 0.038111433 -0.0077272877 -0.02656179 0.034673385 -0.0241937
0.019120537 -0.0004298836 -0.0060184076 -0.026537813 -0.010723945 0.057427548 -0.03913213 0.037021026
0.054106608 0.051285684 0.03291846 -0.019716222 -0.05448019 -0.023061879 0.04153528 0.014492802
-0.064978056 -0.04154899 -0.015876658 -0.01147664 0.06275918 0.028305985 0.030363694 -0.0564889
0.04701671 -0.032021366 -0.068547264 0.04534778 0.008016609 0.015931532 -0.012654178 -0.04190235
0.05839207 0.00021138042 -0.05672333 0.053317368 -0.049327917 0.039268427 0.042673685 0.03558912
-0.045111947 -0.020003326 -0.04471925 0.013844013 -0.054829605 0.059053265 0.04622151 -0.010796759
-0.028502349 -0.00042719394 0.009245001 0.033968337 0.06874197 0.05879662 -0.014191266 0.046563096
0.014597863 -0.008722242 -0.02321273 0.032239474 0.043819204 0.05117868 0.029446758 0.019180998
0.020705111 -0.06670847 -0.00053275377 -0.005543001 -0.0062407255 -0.023243356 0.022337012 0.023375511
-0.029460285 0.022910275 0.0438487 -0.02965412 -0.028136708 0.018712856 -0.06352673 0.05299788
-0.02069258 0.038420722 -0.06817718 -0.050574414 0.044121705 -0.037883535 -0.041350637 0.058235608
-0.038895894 0.04281514 0.049197964 -0.059745386 0.017514728 -0.056996316 -0.043228395 -0.02458141
-0.07060735 -0.03442629 0.012147114 -0.0012208745 -0.0478953 -0.03419283 -0.06669526 0.034170836
-0.01464029 -0.052609757 -0.06663144 -0.05553044 -0.03617082 -0.046241626 0.0009461045 0.037322797
0.029397644 0.0075858533 0.049877457 -0.03574069 -0.021486413 -0.04179532 -0.020217702 -0.051131573
00000000: d2ba 413d bb5b 2dbd d447 27bd 8110 0abd
00000010: 5834 d23c def8 293d 766f 263d 1e64 003d
00000020: 408b 8ebd e9a6 1bbd d82b 513c fe01 31bd
00000030: be38 b0bc b051 f93c e8a5 863c 4447 49bc
00000040: a6a6 cbbc fc90 203d 4050 0d3c ea9b 243d
00000050: 00b8 9c39 683d b83c 051a 2fbd 2c34 ddbc
00000060: 94e9 d8bc e0b0 56bd c283 c7bc 88bc 333d
00000070: 7a71 263d 0eae 2abd 2c32 e1bc 100b e6bb
00000080: 90c4 be3b 80bb 80bb e0a4 a93c 0484 04bd
00000090: 9ed8 793d 4847 12bc 1826 3e3d 2029 593d
000000a0: 727e 7e3d 3416 cc3c ede5 09bd 3ed0 113d
000000b0: d041 903b 26ab 2ebd 9cd8 7bbd 82fc 503d
000000c0: 22fb e6bc 3e6f 4f3d b8e1 efbc 3ece 523d
000000d0: 7c05 1b3d ce91 31bd b271 62bd 9df8 803d
000000e0: c787 83bd c258 42bd 0cf9 f63c e6e4 7b3d
000000f0: 6c4a 7bbd 3c42 903c 8083 e53a 4809 e5bc
00000100: 1e5e bebc c073 7b3b 4e66 f3bc 00d5 063b
00000110: 1005 20bc e4a5 943c e1fb 8f3d 9cb5 68bc
00000120: 2835 44bd 6c71 16bd 7ce0 74bc 000e 4339
00000130: bb8d 87bd ccbb c23c 90db 013d 39e4 48bd
00000140: a74a 8e3d 84c9 4d3d d260 b2bc 333a 863d
00000150: 0686 7d3d f859 ac3c 640e 3d3d f8d8 a83c
00000160: b01f ea3b 12ab 87bc a8f3 583c f4c5 31bd
00000170: ac9f 4c3d 92cc 543d 80ec dabb c8c0 89bc
00000180: a640 d6bc 1053 813c 5ef3 5d3d 7e13 2bbd
00000190: 4c1f 59bc 0065 5ebb f081 c93b c800 083c
000001a0: 0b0e 05bd 2b08 853d 5708 5ebd 507a 203c
000001b0: 5415 5dbc bc75 aa3c 4eaa 5c3d b8a2 663c
000001c0: e816 98bc 2449 413d 148b 403d 606f 1a3d
000001d0: 009d 9f3c 8265 3c3d d213 12bd 14a3 b7bc
000001e0: 0c3f 09bc e8e9 54bd 2095 6bbb 0060 c1bc
000001f0: a0ca 7d3c 8e4b 463d 2d2b 833d 6c23 093d
00000200: d39b 8b3d 72b5 2dbd 72c9 04bd bc1a 1c3d
00000210: 3035 fdbb 1c98 d9bc ae05 0e3d de31 c6bc
00000220: aca2 9c3c 0062 e1b9 1036 c5bb d465 d9bc
00000230: 7cb3 2fbc 2639 6b3d 0349 20bd 5ca3 173d
00000240: e49e 5d3d f010 523d 82d5 063d ea83 a1bc
00000250: 9f26 5fbd 44ec bcbc e620 2a3d 3873 6d3c
00000260: 3713 85bd 462f 2abd c40f 82bc 8408 3cbc
00000270: e387 803d f4e1 e73c 48bd f83c e860 67bd
00000280: 9894 403d d628 03bd 8262 8cbd 98be 393d
00000290: 1858 033c d882 823c 7853 4fbc cca1 2bbd
000002a0: 862c 6f3d 00a6 5d39 b956 68bd 5063 5a3d
000002b0: 120c 4abd eed7 203d 9aca 2e3d e6c5 113d
000002c0: 4ec7 38bd 04de a3bc 882b 37bd 00d2 623c
000002d0: 0295 60bd d6e1 713d c452 3d3d e4e4 30bc
000002e0: c27d e9bc 00f9 dfb9 5878 173c 6222 0b3d
000002f0: 97c8 8c3d bad4 703d 7c82 68bc f2b8 3e3d
00000300: e02b 6f3c bce7 0ebc a028 bebc 8a0d 043d
00000310: c47b 333d bca0 513d 543a f13c 7821 9d3c
00000320: c49d a93c 739e 88bd 80a8 0bba 10a2 b5bb
00000330: 007f ccbb da68 bebc 1cfc b63c 007e bf3c
00000340: b256 f1bc 54ae bb3c b29a 333d 32ed f2bc
00000350: f47e e6bc b44b 993c 4d1a 82bd 4e14 593d
00000360: 7c83 a9bc 0c5f 1d3d 7aa0 8bbd 1e27 4fbd
00000370: f6b8 343d c42b 1bbd 495f 29bd 7688 6e3d
00000380: 4d51 1fbd ee5e 2f3d ce83 493d 94b7 74bd
00000390: 0c7b 8f3c f874 69bd 4210 31bd f45e c9bc
000003a0: 969a 90bd 9502 0dbd b004 473c c005 a0ba
000003b0: dd2d 44bd c80d 0cbd 8697 88bd b8f6 0b3d
000003c0: d4dd 6fbc 547d 57bd 1076 88bd e373 63bd
000003d0: db27 14bd dc67 3dbd 0004 783a cadf 183d
000003e0: 54d3 f03c c092 f83b 4e4c 4c3d d464 12bd
000003f0: 4604 b0bc 9231 2bbd 989f a5bc 576f 51bd

hidden_layers.1.weight f4 [64, 256]
-0.013846785 -0.005139701 -0.051594257 0.024084628 0.028481387 0.018880382 0.030425422 0.021927975
-0.050864287 -0.038967364 -0.013451539 -0.030978307 -0.0053093135 -0.04075785 -0.052711517 0.050906032
0.021479279 0.032591194 -0.05486861 -0.03791397 -0.06174022 -0.009907648 0.046618238 -0.027281985
0.043535978 0.042393044 0.061276823 -0.049825884 -0.030078717 -0.051574275 0.061218053 0.05500479
0.054585904 -0.021401271 -0.050695777 -0.0318031 -0.014155902 -0.024916142 -0.041346498 0.03029856
0.035690345 -0.029601537 0.022983417 0.045359306 -0.020733237 0.029502794 -0.056433924 -0.0390094
-0.020067073 -0.03788551 -0.040398613 0.03791409 0.012794569 -0.048381083 0.029180929 -0.017949887
-0.012497447 -0.036591016 -0.036770597 -0.026199594 -0.0076113045 -0.062345237 -0.012299433 -0.02541282
0.045835152 -0.020516492 -0.05177045 0.017648086 0.02241005 -0.017150499 0.0042200983 0.033545665
-0.05975373 -0.045869432 -0.032518163 -0.012374766 0.009088784 0.0028876439 0.0062872395 0.046461515
-0.056103617 0.004894741 -0.041559063 -0.03257113 -0.03827978 0.036935546 -0.033422396 0.020555504
-0.022257023 -0.05895847 0.038491473 0.008431882 0.022462957 0.009673007 -0.055936657 -0.01970762
0.048761487 -0.018267632 0.023426205 -0.054325044 0.037400857 0.049928546 0.0624979 -0.045480378
0.059932344 -0.04917553 0.0059559345 0.009524927 -0.017053314 -0.031442143 -0.047676697 -0.035686903
0.022548482 -0.035619646 0.005435355 -0.053916387 -0.059826255 0.054495983 0.028684087 0.006351657
0.0008652657 0.013094984 0.0030464306 0.044992745 -0.0018884316 0.02821628 0.058095954 0.013574645
0.06178572 0.028922923 0.02587092 0.021276414 -0.060452484 0.03663156 -0.043122962 0.016371578
-0.030594647 -0.03056816 -0.04806032 0.02733747 0.031156622 -0.04214803 -0.014394864 0.022091806
0.0065430105 0.049173534 -0.051299825 0.04251299 -0.0148440525 0.05186948 -0.016264021 -0.0059927776
-0.011186436 -0.038408466 -0.030238174 0.051148646 -0.047378413 -0.05748599 0.008188985 -0.03331911
-0.01226189 -0.026701182 -0.06154959 -0.036169693 -0.04373823 -0.0029123798 0.0051952973 0.057497323
-0.019792601 0.052469343 0.00856743 -0.055940986 0.022902034 0.021464854 -0.024117425 0.0274079
-0.027215399 -0.056438178 0.05023236 0.030689158 -0.042561106 -0.034037784 0.028025217 -0.01977352
-0.009068035 -0.062214956 -0.022768632 -0.035060585 0.040804215 0.040342852 -0.015556321 -0.005798042
-0.03506378 0.062024303 0.04064998 0.02347678 0.041291244 -0.005106263 0.051913902 -0.013227142
0.024328142 0.050778635 -0.033948123 -0.062087335 0.0014628246 -0.024135135 -0.021724306 -0.027882777
0.060034655 0.026605286 -0.013316475 -0.051492207 -0.0009106025 -0.032728136 0.039191253 -0.024708532
-0.043035604 -0.039716065 0.013309278 -0.04036861 -0.009842172 0.03541994 -0.035310186 0.0594775
-0.044429876 0.04885502 -0.05732671 -0.0108644515 -0.028670147 -0.030687109 0.053831637 0.026842237
0.014105886 0.04440236 0.055014208 -0.056125626 0.031566687 -0.060534246 0.05856213 -0.0033395886
-0.056091167 -0.057388656 -0.05121593 -0.056447618 0.03926737 -0.056170188 -0.0072204024 0.050487652
-0.026644818 -0.056185134 -0.02297756 0.037038192 -0.007316828 0.020830162 -0.010195941 -0.0028523207
00000000: a0dd 62bc f06a a8bb 8054 53bd 204d c53c
00000010: cc51 e93c 08ab 9a3c bc3e f93c 4ca2 b33c
00000020: 1257 50bd 3e9c 1fbd d863 5cbc 38c6 fdbc
00000030: c0f9 adbb b4f1 26bd 08e8 57bd d882 503d
00000040: 50f5 af3c 587e 053d e8bd 60bd ae4b 1bbd
00000050: 50e3 7cbd b053 22bc c4f2 3e3d 787e dfbc
00000060: c852 323d 54a4 2d3d 68fd 7a3d 3a16 4cbd
00000070: a467 f6bc 8c3f 53bd c8bf 7a3d b44c 613d
00000080: 7895 5f3d b851 afbc 60a6 4fbd f843 02bd
00000090: 28ee 67bc f01c ccbc f25a 29bd b034 f83c
000000a0: 0a30 123d ec7e f2bc b847 bc3c aeca 393d
000000b0: c0d8 a9bc d8af f13c 4227 67bd 52c8 1fbd
000000c0: b463 a4bc d62d 1bbd 0479 25bd ce4b 1b3d
000000d0: 50a0 513c 3e2b 46bd d80c ef3c a40b 93bc
000000e0: 18c2 4cbc 76e0 15bd c49c 16bd 88a0 d6bc
000000f0: 4068 f9bb b85d 7fbd 9083 49bc 8c2e d0bc
00000100: a4bd 3b3d 3412 a8bc 400d 54bd b892 903c
00000110: 4895 b73c 347f 8cbc c048 8a3b 2e67 093d
00000120: 54c0 74bd 96e1 3bbd c431 05bd 88bf 4abc
00000130: 20e9 143c a03e 3d3b 3005 ce3b 6e4e 3e3d
00000140: e8cc 65bd 1064 a03b d639 2abd 4e69 05bd
00000150: 42cb 1cbd ba49 173d ece5 08bd 0464 a83c
00000160: 5c54 b6bc 707e 71bd 3ca9 1d3d e025 0a3c
00000170: 3c04 b83c 887b 1e3c d61d 65bd e071 a1bc
00000180: 20ba 473d 00a6 95bc 50e8 bf3c f083 5ebd
00000190: a431 193d e081 4c3d ccfd 7f3d a249 3abd
000001a0: 9e7b 753d 486c 49bd 002a c33b 700e 1c3c
000001b0: 64b3 8bbc 7ac9 00bd a448 43bd 6e2c 12bd
000001c0: 98b7 b83c e8e5 11bd 101b b23b 6ed7 5cbd
000001d0: 600c 75bd 2e37 5f3d e4fa ea3c 9021 d03b
000001e0: 00d3 623a 588c 563c a0a6 473b 504a 383d
000001f0: 4085 f7ba d425 e73c 06f6 6d3d 3068 5e3c
00000200: 0613 7d3d c4ef ec3c 40ef d33c e04b ae3c
00000210: 069d 77bd fa0a 163d b4a1 30bd b01d 863c
00000220: a0a1 fabc 146a fabc e6da 44bd d4f2 df3c
00000230: 2c3c ff3c 6aa3 2cbd 70d8 6bbc e0f9 b43c
00000240: c066 d63b 306a 493d c41f 52bd 1a22 2e3d
00000250: 7834 73bc 1875 543d 203c 85bc 105f c4bb
00000260: 5047 37bc 3252 1dbd 0cb6 f7bc 3e81 513d
00000270: de0f 42bd 6e76 6bbd 182b 063c 9e79 08bd
00000280: 18e6 48bc 70bc dabc 6c1b 7cbd ac26 14bd
00000290: dc26 33bd a0dd 3ebb 503d aa3b 5082 6b3d
000002a0: 1824 a2bc 18ea 563d 685e 0c3c 6022 65bd
000002b0: 0c9d bb3c 10d7 af3c e891 c5bc 8886 e03c
000002c0: d4f2 debc b82b 67bd 72c0 4d3d d467 fb3c
000002d0: 8e54 2ebd 346b 0bbd 2495 e53c 14fc a1bc
000002e0: 1892 14bc 1cd5 7ebd 4885 babc b09b 0fbd
000002f0: 5222 273d 8c3e 253d f0df 7ebc 80fd bdbb
00000300: 0a9f 0fbd 320d 7e3d 9880 263d 6052 c03c
00000310: 0221 293d 7052 a7bb aca3 543d a8b6 58bc
00000320: d04b c73c 42fd 4f3d 300d 0bbd 4a4f 7ebd
00000330: 40bc bf3a 0cb7 c5bc 2cf7 b1bc 6c6a e4bc
00000340: e6e6 753d 54f3 d93c 582d 5abc 7ee9 52bd
00000350: 80b5 6eba f00d 06bd 0287 203d 8c69 cabc
00000360: 1a46 30bd 50ad 22bd 280f 5a3c 8e59 25bd
00000370: 1041 21bc 8014 113d 6aa1 10bd ae9e 733d
00000380: 1afc 35bd 341c 483d 6acf 6abd d000 32bc
00000390: a8dd eabc 8863 fbbc 907e 5c3d 40e4 db3c
000003a0: 601c 673c 40df 353d 9456 613d fce3 65bd
000003b0: 124c 013d c2f2 77bd d8de 6f3d 00dd 5abb
000003c0: dabf 65bd 5e10 6bbd ccc7 51bd 9e35 67bd
000003d0: d2d6 203d b612 66bd 2099 ecbb 24cc 4e3d
000003e0: 3c46 dabc 6222 66bd 703b bcbc 5cb5 173d
000003f0: 00c2 efbb 04a4 aa3c e00c 27bc 00ee 3abb

hidden_layers.1.bias f4 [64]
-0.03528495 -0.03288424 -0.00704138 0.044644125 -0.042967483 -0.048664562 -0.05059421 0.037206583
-0.010365486 -0.05845402 -0.060129218 0.0020490736 -0.029689975 -0.028173245 -0.05486034 0.008003846
0.0035260245 -0.0075119883 0.0146615505 -0.04345192 0.05981224 0.04576528 0.034223914 -0.0034381524
0.034159593 -0.052086152 0.023765005 -0.059576817 -0.0012971014 0.061851703 0.0189166 -0.023121044
-0.00993672 0.0045131296 -0.045598492 -0.022410624 -0.05293726 -0.0014656037 -0.012499601 0.010423459
0.04533743 -0.036603756 -0.05751899 -0.005007006 0.056431033 0.044793308 0.005860932 0.02951216
-0.038244464 -0.03251645 -0.01726085 0.045593835 -0.048129104 0.016601667 0.05987919 -0.06099297
-0.011219963 -0.025117822 0.04500874 0.058832467 -0.010164537 -0.026994891 -0.0022160634 -0.0003438592
00000000: f486 10bd a0b1 06bd 60bb e6bb c2dc 363d
00000010: acfe 2fbd 7e54 47bd e03b 4fbd ee65 183d
00000020: 00d4 29bc 7c6d 6fbd 0e4a 76bd c049 063b
00000030: 6438 f3bc 94cb e6bc 3cb5 60bd 9022 033c
00000040: e014 673b 2027 f6bb 0037 703c a4fa 31bd
00000050: aefd 743d 6074 3b3d 602e 0c3d a052 61bb
00000060: eeea 0b3d 4a58 55bd d4ae c23c d206 74bd
00000070: 8003 aaba 3658 7d3d fcf6 9a3c 5868 bdbc
00000080: a0cd 22bc e0e2 933b 7cc5 3abd 7c96 b7bc
00000090: bed4 58bd 8019 c0ba 20cb 4cbc 28c7 2a3c
000000a0: beb3 393d d2ed 15bd 0899 6bbd d011 a4bb
000000b0: 3a24 673d 3079 373d 100d c03b 7cc3 f13c
000000c0: 3aa6 1cbd f82f 05bd a066 8dbc 9ac0 3a3d
000000d0: 0623 45bd 3800 883c e243 753d c4d3 79bd
000000e0: f0d3 37bc e4c3 cdbc 165b 383d 50fa 703d
000000f0: 2889 26bc 6424 ddbc 603b 11bb 0048 b4b9

output.weight f4 [6, 64]
-0.0953629 0.036933348 0.07581207 0.038916126 -0.09644392 -0.08293763 0.0060265064 0.12225437
-0.051687405 0.12323581 0.103132755 -0.040242672 -0.027622312 0.08366321 -0.055135578 0.047367677
-0.044940963 0.11472216 -0.0136240125 -0.106185734 0.057475522 -0.114904955 -0.07809952 0.10928698
0.006254837 0.044310465 -0.049363524 -0.014399946 -0.11234248 -0.08460648 0.039898425 -0.112842724
-0.06534134 -0.07624118 0.0956116 0.04079032 -0.08966695 0.11532983 -0.0927214 0.06198354
0.01413317 0.08785953 -0.1116647 -0.071643755 0.11396167 -0.004445106 0.06946233 -0.02911745
-0.014188692 -0.08611359 -0.06570789 0.117052406 0.048054874 -0.10365474 -0.09920944 0.065116465
0.024841651 0.049093634 0.08335696 0.017085284 0.04456547 0.09397851 0.07811606 -0.061759517
-0.10101703 0.03502913 -0.046031713 0.09147781 0.118252605 -0.081899256 -0.11033064 0.09490554
-0.002769038 -0.11218394 0.015820935 -0.0831369 -0.045371637 0.10369125 0.027232856 0.10440563
0.09733868 -0.07161312 -0.0988217 0.121914774 0.070785925 -0.11571826 -0.023577124 -0.07197069
-0.09935215 -0.10299069 -0.06492689 -0.019871458 -0.046373233 0.09166969 0.09662609 -0.080488995
-0.11767633 0.051154464 0.044050783 0.005555138 -0.1130584 -0.051567778 0.050032005 -0.019861564
-0.10402425 -0.008375704 -0.04778853 0.0030246824 -0.10799204 -0.09262304 0.06113468 -0.09461367
0.04934512 -0.07148759 -0.011590555 -0.099827915 -0.05832529 0.10262996 0.025868312 -0.004568696
-0.088437766 0.091909334 0.030312166 -0.0471351 0.06490882 -0.023762703 -0.10423139 0.013025448
0.013145328 -0.07336882 -0.08046867 0.079963565 0.03822331 -0.03455876 0.09719859 0.0031037182
-0.043125898 0.08714652 -0.06372154 0.06990166 -0.015485615 0.00041809678 0.08307472 -0.057940766
0.118899524 0.049095526 -0.08770539 -0.04128164 0.031846195 0.0012784451 -0.104877934 -0.1176676
0.10074355 0.057235017 -0.046913877 -0.041761696 0.059988186 0.056425586 0.0399009 0.108060375
-0.119536445 0.06556673 0.014768153 0.041303992 -0.11123407 0.12224911 0.1063797 -0.11613852
-0.12277554 0.065521896 -0.122415364 -0.11910184 -0.09702656 0.08871731 0.06718163 -0.027424946
0.055276707 -0.118226364 -0.013206646 0.11217141 -0.07060976 0.10539399 -0.098924816 0.08195765
0.019154698 -0.11412768 0.05107595 0.09378831 -0.08996457 -0.030365735 -0.0746917 0.106481194
-0.101212785 -0.10874894 -0.07760772 0.08119629 0.08470312 0.04121758 0.01485163 0.037451312
-0.0052964687 -0.118263826 0.0052083284 0.08918187 0.018814534 -0.06652476 -0.12321308 0.0850068
0.107151985 0.110742345 0.057292596 0.12441225 -0.06467757 0.06580512 0.09802827 -0.029372886
-0.12371932 0.116134286 -0.105590075 0.11400202 -0.07791266 -0.07569282 0.055826634 0.080172956
-0.120159104 0.0419534 -0.015818894 -0.07703009 -0.10178383 0.07041778 0.052345514 -0.10903604
0.088354275 0.02525933 0.09158987 -0.023269862 -0.10019545 -0.03727396 0.026666537 -0.101230174
-0.07116276 -0.101963684 -0.061784387 -0.09931409 0.12133461 0.11795385 -0.112047106 -0.030134663
-0.083743215 -0.08751319 -0.11224049 0.035367996 -0.123671904 -0.09266645 0.069067344 -0.01041007
00000000: a04d c3bd 6c47 173d 5c43 9b3d 8466 1f3d
00000010: 6484 c5bd 34db a9bd 007a c53b 8060 fa3d
00000020: 2cb6 53bd 0e63 fc3d 4437 d33d 80d5 24bd
00000030: 3048 e2bc 9e57 ab3d d8d5 61bd 9c04 423d
00000040: 0414 38bd 74f3 ea3d 4037 5fbc e877 d9bd
00000050: 746b 6b3d 4a53 ebbd a4f2 9fbd dad1 df3d
00000060: 60f5 cc3b e47e 353d 6831 4abd c0ed 6bbc
00000070: d013 e6bd 2a46 adbd 886c 233d 161a e7bd
00000080: aed1 85bd 5624 9cbd 04d0 c33d c013 273d
00000090: 4ea3 b7bd 0c32 ec3d b8e4 bdbd 74e2 7d3d
000000a0: d08e 673c b2ef b33d 76b0 e4bd f6b9 92bd
000000b0: bc64 e93d 40a8 91bb 4442 8e3d b887 eebc
000000c0: b077 68bc 525c b0bd dc91 86bd 2cb9 ef3d
000000d0: 30d5 443d f048 d4bd 522e cbbd c85b 853d
000000e0: b880 cb3c 6816 493d 0eb7 aa3d 70f6 8b3c
000000f0: 488a 363d ce77 c03d 50fb 9f3d 8cf7 7cbd
00000100: 04e2 cebd b47a 0f3d c08b 3cbd b858 bb3d
00000110: 6c2e f23d ccba a7bd 08f5 e1bd d65d c23d
00000120: c078 35bb b2c0 e5bd e89a 813c ae43 aabd
00000130: 9cd7 39bd 145c d43d 7017 df3c 9ed2 d53d
00000140: 8059 c73d e6a9 92bd 0863 cabd 74ae f93d
00000150: 36f8 903d b2fd ecbd d024 c1bc 5e65 93bd
00000160: 2479 cbbd c8ec d2bd 64f8 84bd 78c9 a2bc
00000170: dcf1 3dbd 52bd bb3d e6e3 c53d 6ad7 a4bd
00000180: 4a00 f1bd 5887 513d 986e 343d e007 b63b
00000190: 2a8b e7bd bc38 53bd 5cee 4c3d b8b4 a2bc
000001a0: aa0a d5bd 403a 09bc e8bd 43bd c039 463b
000001b0: ee2a ddbd 26b1 bdbd 5c68 7a3d d0c4 c1bd
000001c0: 1c1e 4a3d 1668 92bd 50e6 3dbc 9472 ccbd
000001d0: 80e6 6ebd a82f d23d c8e9 d33c 00b5 95bb
000001e0: dc1e b5bd f63a bc3d 3851 f83c bc10 41bd
000001f0: eaee 843d 00aa c2bc 4477 d5bd b068 553c
00000200: 805f 573c 6442 96bd c2cc a4bd f0c3 a33d
00000210: 0c90 1c3d 7c8d 0dbd 0e10 c73d c067 4b3b
00000220: c8a4 30bd e079 b23d 7080 82bd 9a28 8f3d
00000230: 60b7 7dbc 0034 db39 1423 aa3d 4c53 6dbd
00000240: 9881 f33d 6418 493d e29e b3bd f016 29bd
00000250: 2871 023d 8091 a73a 3eca d6bd b6fb f0bd
00000260: a252 ce3d 446f 6a3d c428 40bd 500e 2bbd
00000270: 2cb6 753d 841e 673d 206f 233d c24e dd3d
00000280: 86cf f4bd da47 863d 20f6 713c 602e 293d
00000290: b0ce e3bd be5d fa3d 9add d93d 08da edbd
000002a0: be71 fbbd 5830 863d e8b4 fabd aaeb f3bd
000002b0: dcb5 c6bd 6cb1 b53d 8696 893d 48aa e0bc
000002c0: d469 623d aa20 f2bd b060 58bc 20ba e53d
000002d0: da9b 90bd ced8 d73d 1899 cabd 6ad9 a73d
000002e0: 50ea 9c3c c6bb e9bd 0435 513d 1614 c03d
000002f0: 583f b8bd 90c1 f8bc f6f7 98bd d012 da3d
00000300: a648 cfbd c4b7 debd ccf0 9ebd 3e4a a63d
00000310: d478 ad3d c4d3 283d 4054 733c 8c66 193d
00000320: 008e adbb 4e34 f2bd a0aa aa3b fca4 b63d
00000330: f020 9a3c 223e 88bd 2457 fcbd 0c18 ae3d
00000340: 8072 db3d e2cc e23d a4ab 6a3d dacb fe3d
00000350: ac75 84bd d6c4 863d 0cc3 c83d 689f f0bc
00000360: 8e60 fdbd d0d7 ed3d 9c3f d8bd e479 e93d
00000370: ac90 9fbd d604 9bbd 78aa 643d b831 a43d
00000380: fa15 f6bd 54d7 2b3d a096 81bc f4c1 9dbd
00000390: 0a74 d0bd 3237 903d 4068 563d 4a4e dfbd
000003a0: 16f3 b43d a8ec ce3c 7893 bb3d 70a0 bebc
000003b0: 4633 cdbd 94ac 18bd c873 da3c c451 cfbd
000003c0: c8bd 91bd 56d2 d0bd a011 7dbd 3065 cbbd
000003d0: 487e f83d ca91 f13d f478 e5bd f8dc f6bc
000003e0: 9081 abbd 1e3a b3bd 58de e5bd 08de 103d
000003f0: b247 fdbd e8c7 bdbd 2e73 8d3d 008f 2abc

output.bias f4 [6]
0.016733289 -0.118141726 0.07650334 -0.12143986 -0.05609031 -0.014538631
00000000: 4014 893c 4af4 f1bd c8ad 9c3d 76b5 f8bd
00000010: f4be 65bd 7033 6ebc
