model/ck/checkpoint.pth (torch_old, 274476 bytes, 6 tensors)

hidden_layers.0.weight f4 [256, 200]
00000000: e042 0e3b bad9 d7bc b28b 603d 368e 61bd
00000010: c075 3b3c 80f3 92ba 9b28 0ebd 5013 e43b
00000020: 48b1 993c b8b7 283d d713 8d3d 4025 ee3a
00000030: 803c 563c 9aef 023d bc2e 223d b324 89bd
00000040: 425e 19bd fcd4 ecbc a0b2 c03c 1e8e 87bc
00000050: b01a 5d3c d09a 55bd 018e 7bbd 2800 3f3c
00000060: 9000 e43b 6ce7 b5bc ebfc 8d3d 40ec e23c
00000070: 00eb 4c3a e40d 4bbc 1c47 2cbd 00bc 8bbc
00000080: f09b ab3b 08ee c33c 7446 a73c e031 58bd
00000090: 4e19 523d 3154 86bd 5677 433d a25b debc
000000a0: b25d 6b3d 069d 42bd 7cd7 113d 80ff debb
000000b0: 5819 edbc fc6e 4bbd c026 9b3b ba1a 10bd
000000c0: 989c 5ebd 96c7 83bd 8855 333d 841e 55bc
000000d0: 40a5 8f3b 6a8f 31bd 3491 da3c 944e a13c
000000e0: 28fe 06bd 7851 b93c 90c5 e23c 28ab 5d3c
000000f0: a47f b73c e421 8bbc a05b 193c 1a49 8dbd
00000100: c8ad ffbc 958b 0cbd 5c85 fd3c 5022 70bc
00000110: 4a39 773d f635 653d dcab f6bc 10a7 d2bb
00000120: d349 89bd 8005 353a 86db 78bd 0e23 673d
00000130: 8058 e93b 06d2 9abc 46c3 663d a329 05bd
00000140: f9d5 1fbd d830 c13c 26fd 68bd fcfd 79bd
00000150: b437 40bc 1edf 85bd 409a a53c 58b5 1c3c
00000160: 804c 43bd 6670 603d f44c 96bc b421 bc3c
00000170: 84d8 96bc 9c9d 583d 40b4 d0ba 80c8 253a
00000180: 48d6 ee3c 00a8 c33b 00eb 963b 30de 1d3c
00000190: 12cc 16bd b06f 443d 5234 5f3d 3220 713d
000001a0: 1bd9 803d 08a0 443c 722e 2c3d c046 243b
000001b0: 68b4 8a3c 54ea b6bc f445 933c 3626 01bd
000001c0: 08f3 b33c b055 9b3b 3c66 25bd 6910 0fbd
000001d0: 1ac9 6c3d 3c16 193d 1e31 2cbd 703f f8bc
000001e0: ec33 90bc 3d3c 6dbd 6fc7 8ebd 00ad e73a
000001f0: 09d2 883d f0d4 d6bb 558e 903d 7cd0 8f3c
00000200: 9270 8fbd d049 383c a04b 51bb 8600 6d3d
00000210: 2836 5d3c fcff 50bc 48cd 81bc bf3e 64bd
00000220: f8a2 55bc cef1 6f3d 4d2c 43bd cfe3 1dbd
00000230: e035 063d 6ca1 413d e0c3 813c da45 733d
00000240: 2810 38bc 8e61 703d 0666 3fbd 0c26 833c
00000250: 4870 393c cbe4 88bd 4457 973c d4ff dcbc
00000260: b5a1 16bd e061 d7bb 9acf 97bc ea29 b3bc
00000270: de88 113d b40a 02bd e46d d23c 40de d8bb
00000280: 8056 0c3c 1332 8f3d 29cc 82bd 5afb 4bbd
00000290: 8857 85bc 6e69 4b3d 5a23 53bd f070 82bd
000002a0: e69e 88bd 01d4 81bd b83e 303d 7c4f 803c
000002b0: c833 e8bc aeb8 2cbd 120f b6bc cef2 49bd
000002c0: d603 77bd 8387 8d3d 6fbd 903d ba32 3fbd
000002d0: 80b6 8a3a d7c1 8f3d ead5 3b3d c04b 70bc
000002e0: 4fa1 8a3d e32f 8abd a2b5 14bd 253d 8bbd
000002f0: f2e4 2e3d 402e af3a e89c 4cbd b021 833b
00000300: ce9e 123d 0ae8 85bd 14ec cd3c 0b7e 843d
00000310: 889b 62bc a65e 3f3d 2855 a63c 801c 64bb
00000320: 777e 7abd 2d11 2abd c6ec bbbc c516 883d
00000330: 7205 40bd 66ce 74bd fb8b 0bbd 3036 7bbd
00000340: 60e8 923b 1403 eabc 0863 4bbd a869 c83c
00000350: eb9d 14bd 70c6 303c c01c 0ebb 1516 803d
00000360: 9ab2 41bd 262f 073d 07ad 863d 3c5e 993c
00000370: 3ba5 73bd 8434 a63c 45c1 16bd 5cb0 61bc
00000380: 024f 793d 2878 b33c 8efa c7bc 30e2 723c
00000390: a006 88bc 2089 e7bc 328e 033d 278f 8c3d
000003a0: bb8f 83bd d864 0a3c 58d9 773c 4046 c13a
000003b0: b6e9 5ebd c09c d73b 6c16 27bd cf55 85bd
000003c0: 4bb5 0cbd b773 72bd b0f0 a63b 8aec 163d
000003d0: 2554 59bd b62e 87bd c0d4 4b3c 5060 febb
000003e0: 9c70 c43c de52 95bc 5035 8fbd 1ee4 e4bc
000003f0: 0577 82bd e6a9 6d3d dbde 6dbd 38c0 523c
0.002170734 -0.026348937 0.054820724 -0.055067264 0.011441648 -0.0011211485 -0.034706693 0.00696031
0.018761292 0.041190833 0.0688855 0.001816906 0.013075948 0.031966783 0.03959535 -0.06696453
-0.037443407 -0.028910153 0.023522675 -0.016547259 0.013495132 -0.052149594 -0.061414722 0.011657752
0.006958075 -0.022205077 0.06933006 0.027700543 0.0007817 -0.0123934485 -0.042060003 -0.017057419
0.005237095 0.023917213 0.020419337 -0.05278194 0.051293664 -0.06559027 0.04772123 -0.027143303
0.0574624 -0.04751303 0.035605893 -0.0068053603 -0.028942749 -0.04966639 0.004734844 -0.03518174
-0.05434856 -0.06434552 0.04378274 -0.013007764 0.004383713 -0.04334966 0.026680566 0.01969079
-0.032957226 0.022621855 0.027682096 0.013529576 0.022399731 -0.016983934 0.009360224 -0.06898709
-0.031210795 -0.034312803 0.03094738 -0.014656618 0.06035737 0.055959664 -0.030111246 -0.006428607
-0.06703534 0.00069054216 -0.06075623 0.056429915 0.0071211457 -0.018898975 0.05633857 -0.03251041
-0.03902242 0.02358286 -0.056882046 -0.061033234 -0.011732031 -0.06536697 0.020215154 0.00956472
-0.047680378 0.05479469 -0.018347241 0.02296529 -0.01841379 0.052884683 -0.0015922859 0.00063241273
0.029154912 0.005970955 0.004605651 0.009635493 -0.03681571 0.047958076 0.054493256 0.058868594
0.062914096 0.012001045 0.04203648 0.0025066584 0.016931728 -0.022328533 0.017977692 -0.03153058
0.021966472 0.0047404394 -0.0403807 -0.03492776 0.057808973 0.03737472 -0.04203903 -0.030303687
-0.017602883 -0.057918776 -0.06971633 0.0017675459 0.06680686 -0.006556146 0.07058398 0.017555468
-0.07003893 0.011248067 -0.0031935945 0.057861827 0.013501681 -0.012756344 -0.015844956 -0.0557239
-0.013039343 0.058580212 -0.04764967 -0.038547333 0.032766223 0.047273085 0.01584047 0.059392788
-0.011234321 0.058686785 -0.046728157 0.016009353 0.011318274 -0.06684264 0.018474229 -0.026977457
-0.03677531 -0.006572947 -0.01853161 -0.021870572 0.035530917 -0.03174849 0.025687166 -0.006618291
0.008565545 0.06991973 -0.06386597 -0.049800254 -0.01627709 0.049661092 -0.051547386 -0.06369197
-0.066709325 -0.06339265 0.043028563 0.015662901 -0.028345004 -0.04216831 -0.022223983 -0.049303822
-0.060306393 0.069106124 0.070673816 -0.046679236 0.0010582954 0.07019394 0.0458583 -0.014666498
0.067690484 -0.06747415 -0.03630603 -0.06798772 0.042698808 0.0013365224 -0.049954325 0.0040018186
0.03579598 -0.065383986 0.025136985 0.06469353 -0.013831027 0.046721123 0.020304278 -0.0034807026
-0.061155763 -0.041520286 -0.02294005 0.06644968 -0.046880193 -0.05976715 -0.034069043 -0.061330974
0.0044832677 -0.02856592 -0.04965499 0.024464443 -0.036283415 0.010789499 -0.0021684617 0.06254212
-0.04728947 0.03300395 0.06575971 0.018721692 -0.059483748 0.020288713 -0.03680541 -0.0137749575
0.060866363 0.02190788 -0.024411466 0.014824435 -0.016604722 -0.028263628 0.03211803 0.06863242
-0.06423899 0.008446895 0.015127502 0.0014745668 -0.054422103 0.0065799654 -0.040792868 -0.06510507
-0.034352582 -0.059192386 0.00509461 0.036846675 -0.053058762 -0.06600706 0.01244086 -0.007762946
0.023979478 -0.01822799 -0.069925904 -0.027940806 -0.063703574 0.058023356 -0.05807386 0.012863211

hidden_layers.0.bias f4 [256]
00000000: 88e0 49bc a273 063d e929 91bc 6860 713c
00000010: 9aea d0bd 047c 0c3d be46 8bbd 4886 23bc
00000020: e92e 4d3d b9df 9e3d 9cb2 21bd 7781 883d
00000030: 9ace bb3c 280c 523d 63df 8b3d 08f6 8b3c
00000040: 6df3 0e3d f68d 803c 1235 3e3c 23c1 caba
00000050: b5f5 0fbd abbb 003d 1612 8c3b 7bc9 b23c
00000060: c3af 8a3d 2010 753b 067e 6b3d 1d11 f9bd
00000070: b71e a1bc bc5c c539 d8eb 5c3d 7a97 973c
00000080: a4c6 7dbc eec2 99bb a4c8 3ebc 2ebb 923c
00000090: 8061 4e3b d3cf 37bc 0ba4 c03d b6cd 243d
000000a0: 9345 843d 27f3 253c 2550 503d 1845 5d3c
000000b0: 7a3e df3b 8c23 fdbb fb71 a4b9 161b e73c
000000c0: 6175 d3bc beb6 543d d538 853d b004 e6bb
000000d0: 5c6a bf3c d9cf da3d 1485 a33c 3aaa 90bd
000000e0: 0cec 8cbd 70f6 8f3b 9f76 bb3d 2c00 3ebb
000000f0: 3e56 88bc 598f 4b3d 5ab6 5fbc 5bfb b23b
00000100: 2feb 5b3d 49f0 44bd 9d66 7fbd ffa8 8c3c
00000110: 562d 473d d87d c63c ec32 18bd 069a 443d
00000120: b869 033e 0aa5 6a3d 1f48 e5bc c42a 713d
00000130: 707d da3c 0b44 903d 755b 173e 2a84 7abd
00000140: ef4f f8bc 89f1 3dbd 005b 9b3d 6e66 0e3d
00000150: 1b80 d13d 9529 79bd ed89 3b3c 6589 833c
00000160: def0 64bd 8a87 863c 9545 953c 4aca 0dbd
00000170: 9c49 0dbd cc8a c53c 9da5 9fbc 8431 e3bc
00000180: 2134 833d aadc d23d 1cd0 bb3c 04e8 b13b
00000190: 801e 5b3b 0538 6bbc 8b73 3dbc 3334 17bd
000001a0: 5955 633d 25c4 0bbd 7dde 20bd 1475 98bd
000001b0: 167b 51bd 8808 b0bd 9f5e c63c 6439 f33c
000001c0: 838f 65bd 9db1 933d 47b6 91bc 6a5f b53b
000001d0: efe7 c5ba 8aca da3d 5a5f 0e3d 785e 4fbd
000001e0: 3bd4 753c 3aeb 243d 65b8 413d cc25 7dbd
000001f0: 8e96 f2bc b703 873d 8a8a cbbc 5100 883a
00000200: 00cf a73a ca6a e43b fb3d 9b3d c099 cfbb
00000210: c3e1 62bd a02d d6bc 1613 0cbc 9c25 ffbc
00000220: 863b fb3c 0064 36bb e2a9 7cbb fcee 7abd
00000230: 7300 e83c 1e34 8dbd 2dd3 c53c 66be b93c
00000240: 390f 73bc 7066 90bb 2ee7 4c3d 8026 c2bc
00000250: d028 f1bb d156 813d f509 57bd 6649 643d
00000260: 99f3 cf3c 5703 7cbd f0aa 2bbc 0a6d c03d
00000270: ef82 8b3d 92b7 313d 845f d2bc b5be c23c
00000280: d93d ebbb f430 723d 544a 503d 3ef7 a1bc
00000290: 05bb 9a3d 8b79 01bc b5b2 61bd dd8f cd3d
000002a0: f686 35bd 9268 0fbd 4195 98bd 51c2 433c
000002b0: 2824 803c 0324 953d e41c 8dbd c034 6dbb
000002c0: 092c 453d 5bc7 8dbc 5475 f9bc f5ea 4abc
000002d0: a260 0b3d 2909 17bd d4b1 113d 30b3 5abd
000002e0: a2da 8d3d 31c6 3e3c fbf9 13bd 58f1 acbc
000002f0: a674 a73b 88d2 bbbc 10b8 343c 69c4 50bd
00000300: b060 993c 646b 09bd 6083 20bd 09a5 39bd
00000310: e752 f73d fb0f 4abd 5c2d a9bc d13f 18bd
00000320: bdb0 3bbd 6459 933c e6b5 443c ea5e 1a3d
00000330: 44ef 2dbc 6c14 173d a63b 983d 6100 383d
00000340: 028a 41bd 555c 253c cc9f b13c 1db2 783d
00000350: 8f73 353d a391 163d a8d2 503c 8790 8d3d
00000360: 7654 653d 69c9 92bd 9f3d 13bd 4b42 983c
00000370: 6b9c 10bd e40c 3ebd 0abd 013c 80ab a73b
00000380: 1ee8 e53d 7de4 a7bd f5e7 683d 84e6 8c3d
00000390: 22b5 653d e46c 2f3d 3a7a 973c 2485 3fbd
000003a0: 81ef a4bc 9ff8 9bbd 38fb 45bd c042 f0ba
000003b0: dbb3 6a3b 8f50 85bd 8052 b83c 8153 d2bc
000003c0: 38d6 723c e27c 35bd 8f50 2c3d fc71 673d
000003d0: 57b5 92bd 500b 50bd 5bae 12bd 695a 853d
000003e0: fad7 023d 4998 253c 8440 5fbc 9897 7e3d
000003f0: 9a75 7bbb 1ba5 6e3d 6088 ce3c 2158 a4bd
-0.012321599 0.03282512 -0.01772018 0.014732458 -0.10200997 0.034297958 -0.068006024 -0.009980746
0.050093565 0.077575155 -0.039476976 0.066653185 0.022925664 0.051281124 0.06829717 0.01708509
0.034900118 0.015692692 0.011609333 -0.0015468936 -0.035146434 0.031428974 0.004274617 0.021824589
0.06771805 0.0037393644 0.057493232 -0.12161467 -0.019667966 0.0003764386 0.053935856 0.018504847
-0.015489254 -0.004692427 -0.011644516 0.01791152 0.003149122 -0.011218983 0.09406289 0.040235244
0.06458583 0.010128773 0.05085768 0.013505243 0.0068128677 -0.007725185 -0.0003136544 0.028211158
-0.025812807 0.05193209 0.065049805 -0.0070196018 0.023366146 0.10684175 0.019960918 -0.07063718
-0.0688096 0.0043933913 0.091534846 -0.0028991802 -0.016642686 0.049697254 -0.013654316 0.005462093
0.053691085 -0.048080716 -0.06235372 0.017170427 0.04862722 0.024229929 -0.037157938 0.04799845
0.12833297 0.0572863 -0.027988492 0.058878675 0.026671141 0.07044228 0.14780982 -0.061161198
-0.030311553 -0.046372924 0.07585716 0.034765653 0.10229512 -0.06083067 0.011446458 0.016056726
-0.05589377 0.016422052 0.018221656 -0.034616746 -0.034494027 0.024114035 -0.01948815 -0.027733572
0.06406427 0.102959946 0.022926383 0.0054292697 0.0033434927 -0.014356618 -0.011563192 -0.036915015
0.055501316 -0.034122605 -0.03927468 -0.07444206 -0.051142775 -0.08595377 0.02421504 0.029690452
-0.056045067 0.072116114 -0.017787112 0.005535056 -0.0015099029 0.106831625 0.034758903 -0.0506272
0.015004213 0.040263392 0.047294993 -0.061803624 -0.029612806 0.065925054 -0.024846334 0.0010376071
0.001280278 0.006970738 0.07580181 -0.006335467 -0.055391084 -0.026144803 -0.008549472 -0.031145863
0.030668031 -0.00278306 -0.0038553406 -0.06126307 0.028320527 -0.06894706 0.024148548 0.022673797
-0.014835172 -0.0044067428 0.050025158 -0.023699999 -0.0073596016 0.06315387 -0.05249973 0.05573406
0.025384711 -0.061526623 -0.010477766 0.093957976 0.06812083 0.043387957 -0.025680311 0.023772577
-0.0071790037 0.059128717 0.050852135 -0.019771215 0.075552024 -0.007902513 -0.05510207 0.10037205
-0.044318162 -0.035011835 -0.07450343 0.011948184 0.01564224 0.07282259 -0.06890276 -0.0036194772
0.0481377 -0.017306974 -0.030451454 -0.01238512 0.034027703 -0.03687397 0.03556998 -0.053393543
0.069264665 0.011643932 -0.03612707 -0.021111175 0.005110341 -0.022927538 0.011030212 -0.05096856
0.018722862 -0.03354968 -0.03918779 -0.045323405 0.12076359 -0.049331646 -0.020651512 -0.037170235
-0.045822848 0.01798696 0.012006259 0.037688173 -0.010616127 0.03688471 0.07433252 0.044922236
-0.047250755 0.010092814 0.021682642 0.060716737 0.04429966 0.036759984 0.012745537 0.06912332
0.05598875 -0.07167322 -0.03594744 0.018586298 -0.03530542 -0.046399012 0.007918606 0.00511688
0.112259135 -0.081978776 0.056861836 0.06879905 0.056080945 0.042828456 0.0184909 -0.046757832
-0.020133736 -0.0761578 -0.048335284 -0.001833044 0.0035812769 -0.06509506 0.022500277 -0.025674583
0.014821582 -0.04430855 0.042069014 0.05650519 -0.07163494 -0.05079204 -0.03581081 0.06511385
0.031944253 0.010107108 -0.013626222 0.06215629 -0.0038369657 0.058262926 0.025211513 -0.08024622

hidden_layers.1.weight f4 [64, 256]
00000000: 0028 1bbb 842a 733d 0ff4 34bd 7cef cd3c
00000010: dc03 a03d b874 fd3c 90b8 2bbd 8e1f 6b3d
00000020: fbd2 e23d c821 87bb dc59 c73c 357f 533d
00000030: 4797 1dbc e3f7 b43c 20b6 253c 005f c9ba
00000040: 00b0 a1ba 2330 8d3c e924 533d 0db0 34bd
00000050: 86c0 033d 1431 9cbc 22f1 5c3c d810 61bc
00000060: 6033 e1bc b4fa 013d 0048 e13b 3b18 65bd
00000070: 8552 ba3d eb54 363c 3845 11bc 826f d0bb
00000080: 5dd7 c63c ae21 8ebd 7832 1a3d e2f1 65bc
00000090: ae00 51bd 3c12 b8bc bc79 4c3e ff7d 3d3d
000000a0: e934 313e c108 073c ece0 42bd b6ae 133d
000000b0: 6ce4 f1bc 9396 77bd b410 ffbd 7d29 5b3c
000000c0: a3eb 3b3d 7fac c43d 60d6 afbb b40b 50bd
000000d0: 4cfe acbc d58a 61bb 55a1 4abd 67cc 37bd
000000e0: 9de0 73be 13e9 eb3c e288 2dbb 1eb8 22bd
000000f0: 6889 edbd 0253 123e 662c 093e 7420 58bd
00000100: 1194 0f3d 29d9 1bbe 9f6f 05bd d615 693d
00000110: cc2e be3c 3a23 2bbd 20f4 fb3d 8a7e 123d
00000120: 1bcc 093e 148b 16bd 214a 17be 3eee 0dbc
00000130: 30ff 6b3c e07b a13b fdab 223e 15da 04bd
00000140: e850 aabe 68ae 433d 746c ee3d 4871 133d
00000150: d30b c5bc f25a 58bc 16f6 eb3c acff 1abd
00000160: b8fc fabd 22b4 303d f5f5 aebc b056 773d
00000170: c096 c83c 8017 663b e384 453d c085 823c
00000180: 757d d3bd e82c 4c3d cdf9 c7bd 40ae 623d
00000190: 1038 c53b 92c1 89bb 98e1 1d3b e924 65bd
000001a0: a980 80bd 12c1 18bd 6328 1cbc cfaf 553a
000001b0: 40e4 a9bb 9497 05be 3818 563d d6b3 013d
000001c0: 471f 78bd 551f ad3c bb25 7fbd 7894 d43d
000001d0: 98d5 0cbd 570b c23d 7808 35bd 9610 1ebd
000001e0: ab6a 0ebc 08c5 1ebc bc0b 39bd 0244 b4bc
000001f0: 294e a83c 4a17 0ebe f156 24bd c605 d6bc
00000200: b604 1b3d 8f6d a4bd 88d7 2cbe 3e15 2abd
00000210: 6837 cd3c e818 6c3d 14cd c3bc 0d12 63bb
00000220: 266b 51bd c028 74bb e293 81bd 2a36 5dbe
00000230: 4ce0 96bd 8403 28be 8dff 0f3d 77f0 06be
00000240: 9561 59bc cf2e afbd 8025 1e3c efcd 36bd
00000250: e873 24bc 8895 2dbc efbc 303d ad90 9dbc
00000260: abc2 493a 7155 4c3d d29a 41bd f3bf 783d
00000270: f2b5 623d 7c65 2dbd 3563 223d 8d54 85bc
00000280: de48 3e3d faf0 14be 3d6c cbbc 3850 a43c
00000290: 566f 5abe 0808 9d3c 8213 29bd 8ab5 ea3d
000002a0: 9eba d33b 2396 67bd 0667 0e3d e702 d93c
000002b0: a896 44bc 2dba 633e 3fd4 2fbd d416 4c3d
000002c0: 7f52 00be 0802 223c bc82 a4bc 596e 49bd
000002d0: 8592 cbbd 6214 b4bc 514b 7abd a4a2 d8bc
000002e0: 336c b73d ec20 adbe c5eb 193d 8f57 31bd
000002f0: 44cf dd3c 2320 f03d 88d8 6ebd 7ad4 79be
00000300: 207b e93c cc7f 883c 3bf3 403b e5d5 9bbc
00000310: 4e3e 4ebb 6dda 77bd 52df fdbd b6e9 38be
00000320: 906e 60bd c688 063d 5e86 173c f452 a63c
00000330: 50e8 17bd 3c88 383d 9c4c bd3d 5e76 e33d
00000340: d03c c93b 01cb 67bd 74e9 5bbd 9495 3b3d
00000350: 8691 91bd bf1d 61bd d0db 763c cc4b b6bc
00000360: ca85 39bd 9f2e 08bd 28af a43c bbc3 333d
00000370: 5fa8 5ebd c162 2abe be6a 1cbc 406a 153b
00000380: 176e 97bd fb9d 343d e2f8 05bd dbab 383e
00000390: 7acf 2d3d de0f 26bd 7e67 f6bc 229e 37bd
000003a0: 013e e9bc 15ae 4abd 7c67 ad3d 40ef 75bc
000003b0: 9651 09be fec2 03bd 06fd cf3c 6812 003c
000003c0: 3647 1ebd d241 2ebd f767 50bd 8217 6fbc
000003d0: 9668 e5bb 78c3 1e3c f728 a73e 2016 57bb
000003e0: 8444 95bc 21b9 3a3d 44d9 803d e782 4a3d
000003f0: 3198 0cbd f247 21bd 7020 9d3b ab26 7bbc
-0.0023674965 0.059366718 -0.044178065 0.02513861 0.07813236 0.030939445 -0.04192406 0.05740314
0.110753976 -0.0041239 0.02433484 0.051634986 -0.009618587 0.022090858 0.010114223 -0.0015363395
-0.0012335777 0.017234867 0.051548872 -0.044113208 0.032166027 -0.019066371 0.013485225 -0.013736926
-0.027490318 0.03173323 0.006875038 -0.05593131 0.090977706 0.011128644 -0.008866601 -0.006360949
0.024272615 -0.06940018 0.037645787 -0.01403472 -0.05102604 -0.022469632 0.19968313 0.046262737
0.1730534 0.008241833 -0.047577783 0.03605529 -0.029527865 -0.060446333 -0.12454358 0.013376591
0.045879018 0.096032135 -0.0053661317 -0.05079241 -0.021117352 -0.0034415026 -0.049470264 -0.044872668
-0.23816152 0.028797662 -0.0026479294 -0.03972637 -0.11598474 0.14289477 0.13395843 -0.052765325
0.035053317 -0.15219559 -0.032577153 0.05690559 0.023215674 -0.04178164 0.123024225 0.03576521
0.13456766 -0.03675373 -0.14774372 -0.008662758 0.014404103 0.004928097 0.15885921 -0.03243454
-0.33264852 0.04777375 0.116417795 0.035996705 -0.02405349 -0.013205277 0.028803866 -0.037841484
-0.122552335 0.043140538 -0.021357516 0.060385406 0.024485946 0.0035109222 0.048222434 0.015932918
-0.103266634 0.049847513 -0.097644426 0.05534196 0.006018646 -0.0042039836 0.0024090763 -0.055943403
-0.0627454 -0.0372935 -0.009531113 0.00081515027 -0.00518468 -0.13046104 0.05226919 0.031665646
-0.060576703 0.021133104 -0.062291842 0.10379881 -0.034383386 0.09474819 -0.04419753 -0.038590036
-0.008692424 -0.009690531 -0.045177206 -0.022005085 0.020545082 -0.13876072 -0.040121976 -0.0261258
0.03784629 -0.08028709 -0.16879094 -0.041524164 0.025050834 0.05764094 -0.0239015 -0.003464821
-0.051127575 -0.0037255734 -0.063270345 -0.21602693 -0.07367 -0.16407591 0.03515582 -0.13177668
-0.013267894 -0.0855385 0.009652495 -0.044629987 -0.0100374 -0.010594733 0.04314893 -0.019234026
0.00076965493 0.04988617 -0.04726679 0.060729932 0.055349298 -0.04233311 0.039645392 -0.016275669
0.04645621 -0.1454505 -0.024831885 0.020057783 -0.21331534 0.019168869 -0.04127837 0.11460407
0.0064614555 -0.056539666 0.03476622 0.026490642 -0.01199881 0.22238989 -0.042927023 0.049826458
-0.1253147 0.00988818 -0.02008187 -0.0491775 -0.09940056 -0.021982376 -0.061106984 -0.02644474
0.08956184 -0.3381418 0.037578363 -0.043296393 0.027076371 0.117248796 -0.05831197 -0.2439746
0.028501093 0.0166625 0.0029441852 -0.019022891 -0.0031470242 -0.06051104 -0.123961106 -0.18057904
-0.05479294 0.03284528 0.009248344 0.020303227 -0.037086785 0.0450518 0.09243128 0.11106561
0.0061412826 -0.056590084 -0.053689435 0.045796946 -0.071078345 -0.05496001 0.015067056 -0.02225294
-0.045293607 -0.033247586 0.020103052 0.043887835 -0.05435979 -0.16639234 -0.009546934 0.0022798926
-0.07394045 0.044095974 -0.032708056 0.18034308 0.042434193 -0.040542476 -0.030078646 -0.04482854
-0.028471949 -0.049482424 0.08467004 -0.015010655 -0.13410029 -0.03216838 0.025389206 0.007816888
-0.03864213 -0.04254324 -0.0508804 -0.014593007 -0.007000993 0.009690158 0.3264844 -0.0032819584
-0.018221147 0.04558671 0.0629144 0.049441244 -0.03432483 -0.039375253 0.0047951266 -0.015329043

hidden_layers.1.bias f4 [64]
00000000: dcc4 dd3d 52f8 06bd 0641 9a3d 7faf b4bb
00000010: 32b2 1fbd 1942 f73c 59d5 e33c f702 0d3d
00000020: bb8b d63d 9680 e03d 0d3b 573d 93dd 8e3c
00000030: ba54 163d 9800 223d 69ea 303c ab11 b63d
00000040: 8af4 a73d 9138 5a3e 6d67 503d 9f7e 373e
00000050: 584e d73d 8dbf 553d 3bcc 953d 4c52 0abd
00000060: e81d 693b 28d4 9d3c db50 203d 4517 e63d
00000070: a506 973d 1077 393a 4b3d 1e3e aa04 ad3d
00000080: 7149 0d3d 10d6 2b3d ee29 913c cfc1 e43b
00000090: 21af 963d 6f66 41bc 1fa1 9c3d 42b5 063d
000000a0: b7c2 d93b a547 bd3d 5430 77bc 9e46 123d
000000b0: 5744 8dbb 0891 233c 4408 123e 6a14 2c3c
000000c0: 8631 383d bc4b e23d 3d32 db3d 0ed3 a93d
000000d0: 50ca f83d aa5f 003d b600 043e 2dad ae3b
000000e0: e21c b93c 4a34 d43c be50 543d 27fb 113d
000000f0: c1e8 db3d 8c5e eb3d 7e1a 333d 8ac3 22bc
0.108285636 -0.03295166 0.075319335 -0.005514085 -0.0389883 0.030182885 0.027811693 0.034426656
0.1047587 0.10962026 0.05254655 0.01743964 0.036701895 0.039551347 0.010798075 0.08890089
0.08200939 0.21310641 0.050879885 0.17919396 0.1051299 0.05218463 0.073143445 -0.03376989
0.0035570804 0.019266203 0.03913961 0.11234907 0.07374314 0.00070749316 0.15453069 0.08448155
0.034493867 0.041952193 0.017720189 0.0069811116 0.07357622 -0.011804207 0.07647919 0.032887705
0.0066455263 0.09242181 -0.015087206 0.035711877 -0.0043111253 0.009983309 0.14260966 0.010502914
0.044969104 0.110496014 0.107029416 0.082922086 0.12147963 0.031341232 0.12890896 0.0053307028
0.02259678 0.02590384 0.051834814 0.03563991 0.10737754 0.11492643 0.043726437 -0.009934315

output.weight f4 [6, 64]
00000000: bc8a dbbe b524 5e3e 5cb6 273d 4c42 9b3c
00000010: 8d32 9f3e 72af c1be 65e1 0e3e e764 753e
00000020: e803 89be 0b70 fbbe cb2b a93d 17b3 c73c
00000030: 6d93 453e 8f58 6fbe 61f3 7dbe 4b0d 1c3e
00000040: 22ef 0fbf 7b89 2fbf 8918 4bbe 87b7 f0be
00000050: 0ef2 b2be a68f 413e 4cfd a23e 0ef1 3abe
00000060: ecab a13e 31ce a63e 873a 903d 00b3 17bc
00000070: b767 73bd 07af 883e 654b c8be bda8 93be
00000080: 3779 853d 7e8f 083e f9d8 7b3e bfe6 793e
00000090: c915 bbbe 0390 d23a d118 733e 1e11 b3be
000000a0: 6413 c53e d92b 8abe 532e 93be 26ff b7be
000000b0: 435b 643e ebab 593e 9854 a73c a404 b13e
000000c0: 89a0 8dbe 79cd a9be b95b b8be 0046 88be
000000d0: 200b cfbd a5c8 053e 8b26 01bf 8d0b 5ebe
000000e0: b27f 6bbe 575a 78bd 35b3 893e 0fec 26be
000000f0: d06c 01bf 31ec 88bd 3407 13be 2525 763e
00000100: cd87 d43b 599a 103e 2e0e d33e 83ca 8b3e
00000110: 7df6 993d 748c 32bd bf25 e5bd bdda c33d
00000120: 3527 9bbc e891 e4be b988 893d a777 063e
00000130: b39c a13d 10be 513e 3ab4 1a3f 97f9 1abe
00000140: adf4 07be 9388 bc3d 4bba ccbe 604b 12bf
00000150: c3b7 7ebe 633a 2cbf 5f03 bcbd 6977 0c3d
00000160: 2064 97be 47b6 c8be 6ca0 0d3e 82fa 35be
00000170: 3572 c63e 5b80 cfbe 5b0f f33d e008 b83e
00000180: a745 803d 13d3 b5bd 178a 633e 1911 e2be
00000190: 73e4 8abe c2eb 48be 7e6c 8abe 4668 bf3e
000001a0: 6df0 91be e241 e7be 394c 493e a912 6c3e
000001b0: 3c72 23bf 0384 95be e711 74be 98f6 65be
000001c0: c873 0dbf fb34 2dbe a4f3 2abd f2a1 c9be
000001d0: 45b9 493e 6010 14bf 7464 193e f5b2 efbe
000001e0: a52b febe 00f4 afbe 8e48 f33d 70c3 553e
000001f0: d14c 313e 0674 a43e dd06 853e 0bde 0f3e
00000200: 3cb6 15bf 45d0 833e 2503 dbbe c534 cabe
00000210: a130 8c3e 368a 423e 5afb 0dbd 93d1 763d
00000220: 7495 423e dcb3 ff3e 27db 473e 5800 9dbd
00000230: 6615 e6be 5803 88bd 7e13 1239 5182 0ebf
00000240: ddea 633e 3096 033e a18e 4fbe a1ff 853d
00000250: e344 723e af99 1a3e 5a8a b2be 6faf b2be
00000260: 5666 96bd 38ae 8b3d cd9a b33d 2e0d dbbe
00000270: 3cad aebe 4387 4b3d 3f43 663d 8a5c f2be
00000280: ea6a c4bd 02cf aabe 7666 4f3e 81db 4bbe
00000290: b02d afbd 67c6 4b3c a235 e6be ba18 f0be
000002a0: c7c4 d3be 6a5d 1b3e e0d6 4e3e bed9 95bd
000002b0: c6fd e7be 8231 6fbe a3f4 0dbf 3245 383e
000002c0: b809 823e e0ee 803e 341f bcbd e14b cfbc
000002d0: b7e1 ef3e 3d3c ca3d 1e43 67bd 0965 dabd
000002e0: d50e ac3e 7677 2bbf 6f01 013e cb9c cebe
000002f0: 6848 833d f3df 493e b691 9e3e 1d29 ffbd
00000300: b9ec d6bc 31c5 babe cc2e 26bf 7092 023f
00000310: 2dc3 4abe 21ad db3d d5c9 39be 8d86 023f
00000320: 106c 93be 9441 3f3e 832d 18bd 9dd3 17bf
00000330: c9ea 8ebe 4ddc 09bf f7c0 bdbe 4796 0d3e
00000340: ac27 b7bc b10c df3d bbce 393e b0d4 2f3e
00000350: e820 393e 992b 9a3d c305 32be 7cc1 003f
00000360: c928 75be b945 f73d 6564 06bf aea3 e63d
00000370: c2cd 5abe 70cf 133e dbc6 e83d 9285 513c
00000380: 5d4f 03bf 13ec 5fbe f6a2 65be f60f 6c3e
00000390: bbfa b83e 4e22 033f a12b 01be 5e70 6abe
000003a0: f3f9 cd3d 6762 b0bd 0687 adbe 1c3c d5be
000003b0: 593e 723e 83ba c83e 38d9 a0be c614 72bd
000003c0: aa15 143e e455 733d 03e0 633e 3709 433e
000003d0: a1d4 7dbe e6d5 593d 856c 993d 5ef9 463d
000003e0: e7ea ccbe bc63 723e 89ee f9bd c8e3 74be
000003f0: 4b91 20be 34f2 58be ee52 33be 5d85 3ebe
-0.42879283 0.2169369 0.040945396 0.018952511 0.31093255 -0.37829167 0.13953169 0.23964272
-0.26760793 -0.4910892 0.08260306 0.024377389 0.1929452 -0.23373626 -0.24799873 0.15239446
-0.5622426 -0.68569154 -0.19833578 -0.4701502 -0.34950298 0.18902454 0.31833875 -0.18256018
0.31576478 0.32579187 0.07042413 -0.0092589855 -0.059425082 0.26696035 -0.3912002 -0.28839675
0.065172605 0.13335988 0.24594487 0.24404429 -0.36540058 0.0016064647 0.23739935 -0.34973997
0.38491356 -0.26986578 -0.2874628 -0.3593685 0.22300439 0.21256988 0.02042608 0.34573853
-0.2766154 -0.33164576 -0.3600748 -0.26615906 -0.10109544 0.13064821 -0.50449437 -0.21684094
-0.2299793 -0.06063303 0.26894537 -0.16300987 -0.5055666 -0.06685675 -0.14358217 0.24037607
0.0064859153 0.14121379 0.41221756 0.27302942 0.07517717 -0.043590978 -0.1118884 0.095632054
-0.018939594 -0.44642568 0.06715531 0.13131581 0.07891216 0.2048266 0.60431254 -0.15134273
-0.1327693 0.09205737 -0.3998588 -0.57146263 -0.24874787 -0.6727659 -0.091803305 0.034293566
-0.29568577 -0.39201567 0.13830727 -0.17771342 0.38759008 -0.40527615 0.11868163 0.3594427
0.06263285 -0.0887815 0.22220646 -0.4415367 -0.27127418 -0.19621184 -0.27035898 0.37384242
-0.28503743 -0.45167452 0.19657983 0.23053993 -0.6384618 -0.2920228 -0.23834954 -0.2245735
-0.55254793 -0.16914742 -0.04173626 -0.39381367 0.19699581 -0.57837486 0.14979726 -0.4681622
-0.49642673 -0.34365845 0.11879073 0.20875335 0.1731446 0.3211977 0.259818 0.14049546
-0.5848119 0.25744835 -0.42775837 -0.39493385 0.2738085 0.18998036 -0.034663536 0.06025846
0.19002324 0.4994191 0.19517194 -0.07666081 -0.449382 -0.06641263 0.00013930906 -0.556676
0.22257562 0.1285026 -0.20269252 0.06542898 0.2365909 0.15097688 -0.3487118 -0.3489947
-0.07343738 0.06820339 0.0876976 -0.42783493 -0.34116542 0.049689543 0.056216475 -0.47336227
-0.09590705 -0.3336106 0.2025393 -0.19907953 -0.08553636 0.0124374395 -0.44962794 -0.46893865
-0.41361067 0.15172353 0.20199156 -0.07316922 -0.453108 -0.2335873 -0.5545141 0.17995146
0.2539804 0.25182247 -0.09185639 -0.025304737 0.46851894 0.09874771 -0.056460492 -0.10663802
0.33605066 -0.6697916 0.12598203 -0.40354 0.06410295 0.19714336 0.30970544 -0.124590136
-0.026235925 -0.3647857 -0.64915156 0.51004696 -0.19801016 0.10726381 -0.18143399 0.5098656
-0.28793383 0.1867736 -0.03715278 -0.5930727 -0.27913502 -0.5385178 -0.37061283 0.13826858
-0.022357784 0.108910926 0.18145268 0.17170978 0.18078959 0.07527847 -0.1738501 0.50295234
-0.2394134 0.120738454 -0.5249694 0.11261688 -0.21367553 0.144346 0.11366054 0.012788193
-0.51292974 -0.21867399 -0.22425446 0.23052964 0.36128792 0.5122422 -0.126143 -0.22894427
0.1005744 -0.08612519 -0.33892077 -0.41647422 0.23656596 0.39204797 -0.31415725 -0.059101842
0.14461389 0.059408084 0.22253422 0.19046484 -0.24788143 0.053182505 0.074914016 0.04857766
-0.40022966 0.23670858 -0.122037 -0.23915017 -0.15680425 -0.21186143 -0.17512104 -0.18605562

output.bias f4 [6]
00000000: 323c f53c d637 6c3d 7548 813d 28b7 15be
00000010: f8f2 3f3e 48b4 5d3d
0.02993593 0.057670437 0.06312648 -0.1462065 0.18745029 0.054127008
